{"format": "graph-model", "generatedBy": "2.6.0", "convertedBy": "TensorFlow.js Converter v3.8.0", "signature": {"inputs": {"input_2": {"name": "input_2:0", "dtype": "DT_FLOAT", "tensorShape": {"dim": [{"size": "-1"}, {"size": "224"}, {"size": "224"}, {"size": "3"}]}}}, "outputs": {"output": {"name": "Identity:0", "dtype": "DT_FLOAT", "tensorShape": {"dim": [{"size": "-1"}, {"size": "133"}]}}}}, "modelTopology": {"node": [{"name": "StatefulPartitionedCall/model_1/block13_sepconv1/separable_conv2d/ReadVariableOp", "op": "Const", "attr": {"dtype": {"type": "DT_FLOAT"}, "value": {"tensor": {"dtype": "DT_FLOAT", "tensorShape": {"dim": [{"size": "3"}, {"size": "3"}, {"size": "728"}, {"size": "1"}]}}}}}, {"name": "StatefulPartitionedCall/model_1/block13_sepconv2/separable_conv2d/ReadVariableOp", "op": "Const", "attr": {"dtype": {"type": "DT_FLOAT"}, "value": {"tensor": {"dtype": "DT_FLOAT", "tensorShape": {"dim": [{"size": "3"}, {"size": "3"}, {"size": "728"}, {"size": "1"}]}}}}}, {"name": "StatefulPartitionedCall/model_1/block12_sepconv1/separable_conv2d/ReadVariableOp", "op": "Const", "attr": {"value": {"tensor": {"dtype": "DT_FLOAT", "tensorShape": {"dim": [{"size": "3"}, {"size": "3"}, {"size": "728"}, {"size": "1"}]}}}, "dtype": {"type": "DT_FLOAT"}}}, {"name": "StatefulPartitionedCall/model_1/block12_sepconv2/separable_conv2d/ReadVariableOp", "op": "Const", "attr": {"value": {"tensor": {"dtype": "DT_FLOAT", "tensorShape": {"dim": [{"size": "3"}, {"size": "3"}, {"size": "728"}, {"size": "1"}]}}}, "dtype": {"type": "DT_FLOAT"}}}, {"name": "StatefulPartitionedCall/model_1/block12_sepconv3/separable_conv2d/ReadVariableOp", "op": "Const", "attr": {"dtype": {"type": "DT_FLOAT"}, "value": {"tensor": {"dtype": "DT_FLOAT", "tensorShape": {"dim": [{"size": "3"}, {"size": "3"}, {"size": "728"}, {"size": "1"}]}}}}}, {"name": "StatefulPartitionedCall/model_1/block11_sepconv1/separable_conv2d/ReadVariableOp", "op": "Const", "attr": {"dtype": {"type": "DT_FLOAT"}, "value": {"tensor": {"dtype": "DT_FLOAT", "tensorShape": {"dim": [{"size": "3"}, {"size": "3"}, {"size": "728"}, {"size": "1"}]}}}}}, {"name": "StatefulPartitionedCall/model_1/block11_sepconv2/separable_conv2d/ReadVariableOp", "op": "Const", "attr": {"value": {"tensor": {"dtype": "DT_FLOAT", "tensorShape": {"dim": [{"size": "3"}, {"size": "3"}, {"size": "728"}, {"size": "1"}]}}}, "dtype": {"type": "DT_FLOAT"}}}, {"name": "StatefulPartitionedCall/model_1/block11_sepconv3/separable_conv2d/ReadVariableOp", "op": "Const", "attr": {"dtype": {"type": "DT_FLOAT"}, "value": {"tensor": {"dtype": "DT_FLOAT", "tensorShape": {"dim": [{"size": "3"}, {"size": "3"}, {"size": "728"}, {"size": "1"}]}}}}}, {"name": "StatefulPartitionedCall/model_1/block10_sepconv1/separable_conv2d/ReadVariableOp", "op": "Const", "attr": {"dtype": {"type": "DT_FLOAT"}, "value": {"tensor": {"dtype": "DT_FLOAT", "tensorShape": {"dim": [{"size": "3"}, {"size": "3"}, {"size": "728"}, {"size": "1"}]}}}}}, {"name": "StatefulPartitionedCall/model_1/block10_sepconv2/separable_conv2d/ReadVariableOp", "op": "Const", "attr": {"dtype": {"type": "DT_FLOAT"}, "value": {"tensor": {"dtype": "DT_FLOAT", "tensorShape": {"dim": [{"size": "3"}, {"size": "3"}, {"size": "728"}, {"size": "1"}]}}}}}, {"name": "StatefulPartitionedCall/model_1/block10_sepconv3/separable_conv2d/ReadVariableOp", "op": "Const", "attr": {"value": {"tensor": {"dtype": "DT_FLOAT", "tensorShape": {"dim": [{"size": "3"}, {"size": "3"}, {"size": "728"}, {"size": "1"}]}}}, "dtype": {"type": "DT_FLOAT"}}}, {"name": "StatefulPartitionedCall/model_1/block9_sepconv1/separable_conv2d/ReadVariableOp", "op": "Const", "attr": {"value": {"tensor": {"dtype": "DT_FLOAT", "tensorShape": {"dim": [{"size": "3"}, {"size": "3"}, {"size": "728"}, {"size": "1"}]}}}, "dtype": {"type": "DT_FLOAT"}}}, {"name": "StatefulPartitionedCall/model_1/block9_sepconv2/separable_conv2d/ReadVariableOp", "op": "Const", "attr": {"dtype": {"type": "DT_FLOAT"}, "value": {"tensor": {"dtype": "DT_FLOAT", "tensorShape": {"dim": [{"size": "3"}, {"size": "3"}, {"size": "728"}, {"size": "1"}]}}}}}, {"name": "StatefulPartitionedCall/model_1/block9_sepconv3/separable_conv2d/ReadVariableOp", "op": "Const", "attr": {"dtype": {"type": "DT_FLOAT"}, "value": {"tensor": {"dtype": "DT_FLOAT", "tensorShape": {"dim": [{"size": "3"}, {"size": "3"}, {"size": "728"}, {"size": "1"}]}}}}}, {"name": "StatefulPartitionedCall/model_1/block8_sepconv1/separable_conv2d/ReadVariableOp", "op": "Const", "attr": {"value": {"tensor": {"dtype": "DT_FLOAT", "tensorShape": {"dim": [{"size": "3"}, {"size": "3"}, {"size": "728"}, {"size": "1"}]}}}, "dtype": {"type": "DT_FLOAT"}}}, {"name": "StatefulPartitionedCall/model_1/block8_sepconv2/separable_conv2d/ReadVariableOp", "op": "Const", "attr": {"value": {"tensor": {"dtype": "DT_FLOAT", "tensorShape": {"dim": [{"size": "3"}, {"size": "3"}, {"size": "728"}, {"size": "1"}]}}}, "dtype": {"type": "DT_FLOAT"}}}, {"name": "StatefulPartitionedCall/model_1/block8_sepconv3/separable_conv2d/ReadVariableOp", "op": "Const", "attr": {"dtype": {"type": "DT_FLOAT"}, "value": {"tensor": {"dtype": "DT_FLOAT", "tensorShape": {"dim": [{"size": "3"}, {"size": "3"}, {"size": "728"}, {"size": "1"}]}}}}}, {"name": "StatefulPartitionedCall/model_1/block7_sepconv1/separable_conv2d/ReadVariableOp", "op": "Const", "attr": {"dtype": {"type": "DT_FLOAT"}, "value": {"tensor": {"dtype": "DT_FLOAT", "tensorShape": {"dim": [{"size": "3"}, {"size": "3"}, {"size": "728"}, {"size": "1"}]}}}}}, {"name": "StatefulPartitionedCall/model_1/block7_sepconv2/separable_conv2d/ReadVariableOp", "op": "Const", "attr": {"value": {"tensor": {"dtype": "DT_FLOAT", "tensorShape": {"dim": [{"size": "3"}, {"size": "3"}, {"size": "728"}, {"size": "1"}]}}}, "dtype": {"type": "DT_FLOAT"}}}, {"name": "StatefulPartitionedCall/model_1/block7_sepconv3/separable_conv2d/ReadVariableOp", "op": "Const", "attr": {"dtype": {"type": "DT_FLOAT"}, "value": {"tensor": {"dtype": "DT_FLOAT", "tensorShape": {"dim": [{"size": "3"}, {"size": "3"}, {"size": "728"}, {"size": "1"}]}}}}}, {"name": "StatefulPartitionedCall/model_1/block6_sepconv1/separable_conv2d/ReadVariableOp", "op": "Const", "attr": {"value": {"tensor": {"dtype": "DT_FLOAT", "tensorShape": {"dim": [{"size": "3"}, {"size": "3"}, {"size": "728"}, {"size": "1"}]}}}, "dtype": {"type": "DT_FLOAT"}}}, {"name": "StatefulPartitionedCall/model_1/block6_sepconv2/separable_conv2d/ReadVariableOp", "op": "Const", "attr": {"value": {"tensor": {"dtype": "DT_FLOAT", "tensorShape": {"dim": [{"size": "3"}, {"size": "3"}, {"size": "728"}, {"size": "1"}]}}}, "dtype": {"type": "DT_FLOAT"}}}, {"name": "StatefulPartitionedCall/model_1/block6_sepconv3/separable_conv2d/ReadVariableOp", "op": "Const", "attr": {"value": {"tensor": {"dtype": "DT_FLOAT", "tensorShape": {"dim": [{"size": "3"}, {"size": "3"}, {"size": "728"}, {"size": "1"}]}}}, "dtype": {"type": "DT_FLOAT"}}}, {"name": "StatefulPartitionedCall/model_1/block5_sepconv1/separable_conv2d/ReadVariableOp", "op": "Const", "attr": {"dtype": {"type": "DT_FLOAT"}, "value": {"tensor": {"dtype": "DT_FLOAT", "tensorShape": {"dim": [{"size": "3"}, {"size": "3"}, {"size": "728"}, {"size": "1"}]}}}}}, {"name": "StatefulPartitionedCall/model_1/block5_sepconv2/separable_conv2d/ReadVariableOp", "op": "Const", "attr": {"value": {"tensor": {"dtype": "DT_FLOAT", "tensorShape": {"dim": [{"size": "3"}, {"size": "3"}, {"size": "728"}, {"size": "1"}]}}}, "dtype": {"type": "DT_FLOAT"}}}, {"name": "StatefulPartitionedCall/model_1/block5_sepconv3/separable_conv2d/ReadVariableOp", "op": "Const", "attr": {"value": {"tensor": {"dtype": "DT_FLOAT", "tensorShape": {"dim": [{"size": "3"}, {"size": "3"}, {"size": "728"}, {"size": "1"}]}}}, "dtype": {"type": "DT_FLOAT"}}}, {"name": "StatefulPartitionedCall/model_1/block4_sepconv1/separable_conv2d/ReadVariableOp", "op": "Const", "attr": {"dtype": {"type": "DT_FLOAT"}, "value": {"tensor": {"dtype": "DT_FLOAT", "tensorShape": {"dim": [{"size": "3"}, {"size": "3"}, {"size": "256"}, {"size": "1"}]}}}}}, {"name": "StatefulPartitionedCall/model_1/block4_sepconv2/separable_conv2d/ReadVariableOp", "op": "Const", "attr": {"value": {"tensor": {"dtype": "DT_FLOAT", "tensorShape": {"dim": [{"size": "3"}, {"size": "3"}, {"size": "728"}, {"size": "1"}]}}}, "dtype": {"type": "DT_FLOAT"}}}, {"name": "StatefulPartitionedCall/model_1/block3_sepconv1/separable_conv2d/ReadVariableOp", "op": "Const", "attr": {"value": {"tensor": {"dtype": "DT_FLOAT", "tensorShape": {"dim": [{"size": "3"}, {"size": "3"}, {"size": "128"}, {"size": "1"}]}}}, "dtype": {"type": "DT_FLOAT"}}}, {"name": "StatefulPartitionedCall/model_1/block3_sepconv2/separable_conv2d/ReadVariableOp", "op": "Const", "attr": {"value": {"tensor": {"dtype": "DT_FLOAT", "tensorShape": {"dim": [{"size": "3"}, {"size": "3"}, {"size": "256"}, {"size": "1"}]}}}, "dtype": {"type": "DT_FLOAT"}}}, {"name": "StatefulPartitionedCall/model_1/block2_sepconv1/separable_conv2d/ReadVariableOp", "op": "Const", "attr": {"dtype": {"type": "DT_FLOAT"}, "value": {"tensor": {"dtype": "DT_FLOAT", "tensorShape": {"dim": [{"size": "3"}, {"size": "3"}, {"size": "64"}, {"size": "1"}]}}}}}, {"name": "StatefulPartitionedCall/model_1/block2_sepconv2/separable_conv2d/ReadVariableOp", "op": "Const", "attr": {"dtype": {"type": "DT_FLOAT"}, "value": {"tensor": {"dtype": "DT_FLOAT", "tensorShape": {"dim": [{"size": "3"}, {"size": "3"}, {"size": "128"}, {"size": "1"}]}}}}}, {"name": "StatefulPartitionedCall/model_1/block14_sepconv1/separable_conv2d/ReadVariableOp", "op": "Const", "attr": {"dtype": {"type": "DT_FLOAT"}, "value": {"tensor": {"dtype": "DT_FLOAT", "tensorShape": {"dim": [{"size": "3"}, {"size": "3"}, {"size": "1024"}, {"size": "1"}]}}}}}, {"name": "StatefulPartitionedCall/model_1/block14_sepconv2/separable_conv2d/ReadVariableOp", "op": "Const", "attr": {"dtype": {"type": "DT_FLOAT"}, "value": {"tensor": {"dtype": "DT_FLOAT", "tensorShape": {"dim": [{"size": "3"}, {"size": "3"}, {"size": "1536"}, {"size": "1"}]}}}}}, {"name": "StatefulPartitionedCall/model_1/global_average_pooling2d_1/Mean/reduction_indices", "op": "Const", "attr": {"dtype": {"type": "DT_INT32"}, "value": {"tensor": {"dtype": "DT_INT32", "tensorShape": {"dim": [{"size": "2"}]}}}}}, {"name": "StatefulPartitionedCall/model_1/dense_3/MatMul/ReadVariableOp", "op": "Const", "attr": {"value": {"tensor": {"dtype": "DT_FLOAT", "tensorShape": {"dim": [{"size": "2048"}, {"size": "1024"}]}}}, "dtype": {"type": "DT_FLOAT"}}}, {"name": "StatefulPartitionedCall/model_1/dense_3/BiasAdd/ReadVariableOp", "op": "Const", "attr": {"value": {"tensor": {"dtype": "DT_FLOAT", "tensorShape": {"dim": [{"size": "1024"}]}}}, "dtype": {"type": "DT_FLOAT"}}}, {"name": "StatefulPartitionedCall/model_1/dense_4/MatMul/ReadVariableOp", "op": "Const", "attr": {"value": {"tensor": {"dtype": "DT_FLOAT", "tensorShape": {"dim": [{"size": "1024"}, {"size": "512"}]}}}, "dtype": {"type": "DT_FLOAT"}}}, {"name": "StatefulPartitionedCall/model_1/dense_4/BiasAdd/ReadVariableOp", "op": "Const", "attr": {"dtype": {"type": "DT_FLOAT"}, "value": {"tensor": {"dtype": "DT_FLOAT", "tensorShape": {"dim": [{"size": "512"}]}}}}}, {"name": "StatefulPartitionedCall/model_1/dense_5/MatMul/ReadVariableOp", "op": "Const", "attr": {"dtype": {"type": "DT_FLOAT"}, "value": {"tensor": {"dtype": "DT_FLOAT", "tensorShape": {"dim": [{"size": "512"}, {"size": "256"}]}}}}}, {"name": "StatefulPartitionedCall/model_1/dense_5/BiasAdd/ReadVariableOp", "op": "Const", "attr": {"value": {"tensor": {"dtype": "DT_FLOAT", "tensorShape": {"dim": [{"size": "256"}]}}}, "dtype": {"type": "DT_FLOAT"}}}, {"name": "StatefulPartitionedCall/model_1/output/MatMul/ReadVariableOp", "op": "Const", "attr": {"value": {"tensor": {"dtype": "DT_FLOAT", "tensorShape": {"dim": [{"size": "256"}, {"size": "133"}]}}}, "dtype": {"type": "DT_FLOAT"}}}, {"name": "StatefulPartitionedCall/model_1/output/BiasAdd/ReadVariableOp", "op": "Const", "attr": {"dtype": {"type": "DT_FLOAT"}, "value": {"tensor": {"dtype": "DT_FLOAT", "tensorShape": {"dim": [{"size": "133"}]}}}}}, {"name": "input_2", "op": "Placeholder", "attr": {"dtype": {"type": "DT_FLOAT"}, "shape": {"shape": {"dim": [{"size": "-1"}, {"size": "224"}, {"size": "224"}, {"size": "3"}]}}}}, {"name": "StatefulPartitionedCall/model_1/block1_conv1/Conv2D_weights", "op": "Const", "attr": {"dtype": {"type": "DT_FLOAT"}, "value": {"tensor": {"dtype": "DT_FLOAT", "tensorShape": {"dim": [{"size": "3"}, {"size": "3"}, {"size": "3"}, {"size": "32"}]}}}}}, {"name": "StatefulPartitionedCall/model_1/block1_conv1/Conv2D_bn_offset", "op": "Const", "attr": {"value": {"tensor": {"dtype": "DT_FLOAT", "tensorShape": {"dim": [{"size": "32"}]}}}, "dtype": {"type": "DT_FLOAT"}}}, {"name": "StatefulPartitionedCall/model_1/block1_conv2/Conv2D_weights", "op": "Const", "attr": {"dtype": {"type": "DT_FLOAT"}, "value": {"tensor": {"dtype": "DT_FLOAT", "tensorShape": {"dim": [{"size": "3"}, {"size": "3"}, {"size": "32"}, {"size": "64"}]}}}}}, {"name": "StatefulPartitionedCall/model_1/block1_conv2/Conv2D_bn_offset", "op": "Const", "attr": {"dtype": {"type": "DT_FLOAT"}, "value": {"tensor": {"dtype": "DT_FLOAT", "tensorShape": {"dim": [{"size": "64"}]}}}}}, {"name": "StatefulPartitionedCall/model_1/block11_sepconv3/separable_conv2d_weights", "op": "Const", "attr": {"value": {"tensor": {"dtype": "DT_FLOAT", "tensorShape": {"dim": [{"size": "1"}, {"size": "1"}, {"size": "728"}, {"size": "728"}]}}}, "dtype": {"type": "DT_FLOAT"}}}, {"name": "StatefulPartitionedCall/model_1/conv2d_4/Conv2D_weights", "op": "Const", "attr": {"dtype": {"type": "DT_FLOAT"}, "value": {"tensor": {"dtype": "DT_FLOAT", "tensorShape": {"dim": [{"size": "1"}, {"size": "1"}, {"size": "64"}, {"size": "128"}]}}}}}, {"name": "StatefulPartitionedCall/model_1/conv2d_4/Conv2D_bn_offset", "op": "Const", "attr": {"value": {"tensor": {"dtype": "DT_FLOAT", "tensorShape": {"dim": [{"size": "128"}]}}}, "dtype": {"type": "DT_FLOAT"}}}, {"name": "StatefulPartitionedCall/model_1/block2_sepconv1/separable_conv2d_weights", "op": "Const", "attr": {"dtype": {"type": "DT_FLOAT"}, "value": {"tensor": {"dtype": "DT_FLOAT", "tensorShape": {"dim": [{"size": "1"}, {"size": "1"}, {"size": "64"}, {"size": "128"}]}}}}}, {"name": "StatefulPartitionedCall/model_1/block11_sepconv3/separable_conv2d_bn_offset", "op": "Const", "attr": {"dtype": {"type": "DT_FLOAT"}, "value": {"tensor": {"dtype": "DT_FLOAT", "tensorShape": {"dim": [{"size": "728"}]}}}}}, {"name": "StatefulPartitionedCall/model_1/block2_sepconv1/separable_conv2d_bn_offset", "op": "Const", "attr": {"value": {"tensor": {"dtype": "DT_FLOAT", "tensorShape": {"dim": [{"size": "128"}]}}}, "dtype": {"type": "DT_FLOAT"}}}, {"name": "StatefulPartitionedCall/model_1/block2_sepconv2/separable_conv2d_weights", "op": "Const", "attr": {"value": {"tensor": {"dtype": "DT_FLOAT", "tensorShape": {"dim": [{"size": "1"}, {"size": "1"}, {"size": "128"}, {"size": "128"}]}}}, "dtype": {"type": "DT_FLOAT"}}}, {"name": "StatefulPartitionedCall/model_1/block2_sepconv2/separable_conv2d_bn_offset", "op": "Const", "attr": {"dtype": {"type": "DT_FLOAT"}, "value": {"tensor": {"dtype": "DT_FLOAT", "tensorShape": {"dim": [{"size": "128"}]}}}}}, {"name": "StatefulPartitionedCall/model_1/conv2d_5/Conv2D_weights", "op": "Const", "attr": {"value": {"tensor": {"dtype": "DT_FLOAT", "tensorShape": {"dim": [{"size": "1"}, {"size": "1"}, {"size": "128"}, {"size": "256"}]}}}, "dtype": {"type": "DT_FLOAT"}}}, {"name": "StatefulPartitionedCall/model_1/conv2d_5/Conv2D_bn_offset", "op": "Const", "attr": {"value": {"tensor": {"dtype": "DT_FLOAT", "tensorShape": {"dim": [{"size": "256"}]}}}, "dtype": {"type": "DT_FLOAT"}}}, {"name": "StatefulPartitionedCall/model_1/block3_sepconv1/separable_conv2d_weights", "op": "Const", "attr": {"value": {"tensor": {"dtype": "DT_FLOAT", "tensorShape": {"dim": [{"size": "1"}, {"size": "1"}, {"size": "128"}, {"size": "256"}]}}}, "dtype": {"type": "DT_FLOAT"}}}, {"name": "StatefulPartitionedCall/model_1/block3_sepconv1/separable_conv2d_bn_offset", "op": "Const", "attr": {"dtype": {"type": "DT_FLOAT"}, "value": {"tensor": {"dtype": "DT_FLOAT", "tensorShape": {"dim": [{"size": "256"}]}}}}}, {"name": "StatefulPartitionedCall/model_1/block12_sepconv1/separable_conv2d_weights", "op": "Const", "attr": {"dtype": {"type": "DT_FLOAT"}, "value": {"tensor": {"dtype": "DT_FLOAT", "tensorShape": {"dim": [{"size": "1"}, {"size": "1"}, {"size": "728"}, {"size": "728"}]}}}}}, {"name": "StatefulPartitionedCall/model_1/block3_sepconv2/separable_conv2d_weights", "op": "Const", "attr": {"dtype": {"type": "DT_FLOAT"}, "value": {"tensor": {"dtype": "DT_FLOAT", "tensorShape": {"dim": [{"size": "1"}, {"size": "1"}, {"size": "256"}, {"size": "256"}]}}}}}, {"name": "StatefulPartitionedCall/model_1/block3_sepconv2/separable_conv2d_bn_offset", "op": "Const", "attr": {"dtype": {"type": "DT_FLOAT"}, "value": {"tensor": {"dtype": "DT_FLOAT", "tensorShape": {"dim": [{"size": "256"}]}}}}}, {"name": "StatefulPartitionedCall/model_1/conv2d_6/Conv2D_weights", "op": "Const", "attr": {"dtype": {"type": "DT_FLOAT"}, "value": {"tensor": {"dtype": "DT_FLOAT", "tensorShape": {"dim": [{"size": "1"}, {"size": "1"}, {"size": "256"}, {"size": "728"}]}}}}}, {"name": "StatefulPartitionedCall/model_1/block12_sepconv1/separable_conv2d_bn_offset", "op": "Const", "attr": {"dtype": {"type": "DT_FLOAT"}, "value": {"tensor": {"dtype": "DT_FLOAT", "tensorShape": {"dim": [{"size": "728"}]}}}}}, {"name": "StatefulPartitionedCall/model_1/conv2d_6/Conv2D_bn_offset", "op": "Const", "attr": {"dtype": {"type": "DT_FLOAT"}, "value": {"tensor": {"dtype": "DT_FLOAT", "tensorShape": {"dim": [{"size": "728"}]}}}}}, {"name": "StatefulPartitionedCall/model_1/block4_sepconv1/separable_conv2d_weights", "op": "Const", "attr": {"dtype": {"type": "DT_FLOAT"}, "value": {"tensor": {"dtype": "DT_FLOAT", "tensorShape": {"dim": [{"size": "1"}, {"size": "1"}, {"size": "256"}, {"size": "728"}]}}}}}, {"name": "StatefulPartitionedCall/model_1/block14_sepconv2/separable_conv2d_weights", "op": "Const", "attr": {"dtype": {"type": "DT_FLOAT"}, "value": {"tensor": {"dtype": "DT_FLOAT", "tensorShape": {"dim": [{"size": "1"}, {"size": "1"}, {"size": "1536"}, {"size": "2048"}]}}}}}, {"name": "StatefulPartitionedCall/model_1/block4_sepconv1/separable_conv2d_bn_offset", "op": "Const", "attr": {"dtype": {"type": "DT_FLOAT"}, "value": {"tensor": {"dtype": "DT_FLOAT", "tensorShape": {"dim": [{"size": "728"}]}}}}}, {"name": "StatefulPartitionedCall/model_1/block4_sepconv2/separable_conv2d_weights", "op": "Const", "attr": {"dtype": {"type": "DT_FLOAT"}, "value": {"tensor": {"dtype": "DT_FLOAT", "tensorShape": {"dim": [{"size": "1"}, {"size": "1"}, {"size": "728"}, {"size": "728"}]}}}}}, {"name": "StatefulPartitionedCall/model_1/block4_sepconv2/separable_conv2d_bn_offset", "op": "Const", "attr": {"dtype": {"type": "DT_FLOAT"}, "value": {"tensor": {"dtype": "DT_FLOAT", "tensorShape": {"dim": [{"size": "728"}]}}}}}, {"name": "StatefulPartitionedCall/model_1/block5_sepconv1/separable_conv2d_weights", "op": "Const", "attr": {"value": {"tensor": {"dtype": "DT_FLOAT", "tensorShape": {"dim": [{"size": "1"}, {"size": "1"}, {"size": "728"}, {"size": "728"}]}}}, "dtype": {"type": "DT_FLOAT"}}}, {"name": "StatefulPartitionedCall/model_1/block12_sepconv2/separable_conv2d_weights", "op": "Const", "attr": {"value": {"tensor": {"dtype": "DT_FLOAT", "tensorShape": {"dim": [{"size": "1"}, {"size": "1"}, {"size": "728"}, {"size": "728"}]}}}, "dtype": {"type": "DT_FLOAT"}}}, {"name": "StatefulPartitionedCall/model_1/block5_sepconv1/separable_conv2d_bn_offset", "op": "Const", "attr": {"dtype": {"type": "DT_FLOAT"}, "value": {"tensor": {"dtype": "DT_FLOAT", "tensorShape": {"dim": [{"size": "728"}]}}}}}, {"name": "StatefulPartitionedCall/model_1/block5_sepconv2/separable_conv2d_weights", "op": "Const", "attr": {"value": {"tensor": {"dtype": "DT_FLOAT", "tensorShape": {"dim": [{"size": "1"}, {"size": "1"}, {"size": "728"}, {"size": "728"}]}}}, "dtype": {"type": "DT_FLOAT"}}}, {"name": "StatefulPartitionedCall/model_1/block12_sepconv2/separable_conv2d_bn_offset", "op": "Const", "attr": {"dtype": {"type": "DT_FLOAT"}, "value": {"tensor": {"dtype": "DT_FLOAT", "tensorShape": {"dim": [{"size": "728"}]}}}}}, {"name": "StatefulPartitionedCall/model_1/block5_sepconv2/separable_conv2d_bn_offset", "op": "Const", "attr": {"value": {"tensor": {"dtype": "DT_FLOAT", "tensorShape": {"dim": [{"size": "728"}]}}}, "dtype": {"type": "DT_FLOAT"}}}, {"name": "StatefulPartitionedCall/model_1/block14_sepconv2/separable_conv2d_bn_offset", "op": "Const", "attr": {"dtype": {"type": "DT_FLOAT"}, "value": {"tensor": {"dtype": "DT_FLOAT", "tensorShape": {"dim": [{"size": "2048"}]}}}}}, {"name": "StatefulPartitionedCall/model_1/block5_sepconv3/separable_conv2d_weights", "op": "Const", "attr": {"dtype": {"type": "DT_FLOAT"}, "value": {"tensor": {"dtype": "DT_FLOAT", "tensorShape": {"dim": [{"size": "1"}, {"size": "1"}, {"size": "728"}, {"size": "728"}]}}}}}, {"name": "StatefulPartitionedCall/model_1/block5_sepconv3/separable_conv2d_bn_offset", "op": "Const", "attr": {"dtype": {"type": "DT_FLOAT"}, "value": {"tensor": {"dtype": "DT_FLOAT", "tensorShape": {"dim": [{"size": "728"}]}}}}}, {"name": "StatefulPartitionedCall/model_1/block6_sepconv1/separable_conv2d_weights", "op": "Const", "attr": {"dtype": {"type": "DT_FLOAT"}, "value": {"tensor": {"dtype": "DT_FLOAT", "tensorShape": {"dim": [{"size": "1"}, {"size": "1"}, {"size": "728"}, {"size": "728"}]}}}}}, {"name": "StatefulPartitionedCall/model_1/block6_sepconv1/separable_conv2d_bn_offset", "op": "Const", "attr": {"dtype": {"type": "DT_FLOAT"}, "value": {"tensor": {"dtype": "DT_FLOAT", "tensorShape": {"dim": [{"size": "728"}]}}}}}, {"name": "StatefulPartitionedCall/model_1/block12_sepconv3/separable_conv2d_weights", "op": "Const", "attr": {"value": {"tensor": {"dtype": "DT_FLOAT", "tensorShape": {"dim": [{"size": "1"}, {"size": "1"}, {"size": "728"}, {"size": "728"}]}}}, "dtype": {"type": "DT_FLOAT"}}}, {"name": "StatefulPartitionedCall/model_1/block6_sepconv2/separable_conv2d_weights", "op": "Const", "attr": {"value": {"tensor": {"dtype": "DT_FLOAT", "tensorShape": {"dim": [{"size": "1"}, {"size": "1"}, {"size": "728"}, {"size": "728"}]}}}, "dtype": {"type": "DT_FLOAT"}}}, {"name": "StatefulPartitionedCall/model_1/block6_sepconv2/separable_conv2d_bn_offset", "op": "Const", "attr": {"dtype": {"type": "DT_FLOAT"}, "value": {"tensor": {"dtype": "DT_FLOAT", "tensorShape": {"dim": [{"size": "728"}]}}}}}, {"name": "StatefulPartitionedCall/model_1/block12_sepconv3/separable_conv2d_bn_offset", "op": "Const", "attr": {"dtype": {"type": "DT_FLOAT"}, "value": {"tensor": {"dtype": "DT_FLOAT", "tensorShape": {"dim": [{"size": "728"}]}}}}}, {"name": "StatefulPartitionedCall/model_1/block6_sepconv3/separable_conv2d_weights", "op": "Const", "attr": {"value": {"tensor": {"dtype": "DT_FLOAT", "tensorShape": {"dim": [{"size": "1"}, {"size": "1"}, {"size": "728"}, {"size": "728"}]}}}, "dtype": {"type": "DT_FLOAT"}}}, {"name": "StatefulPartitionedCall/model_1/block6_sepconv3/separable_conv2d_bn_offset", "op": "Const", "attr": {"value": {"tensor": {"dtype": "DT_FLOAT", "tensorShape": {"dim": [{"size": "728"}]}}}, "dtype": {"type": "DT_FLOAT"}}}, {"name": "StatefulPartitionedCall/model_1/block7_sepconv1/separable_conv2d_weights", "op": "Const", "attr": {"dtype": {"type": "DT_FLOAT"}, "value": {"tensor": {"dtype": "DT_FLOAT", "tensorShape": {"dim": [{"size": "1"}, {"size": "1"}, {"size": "728"}, {"size": "728"}]}}}}}, {"name": "StatefulPartitionedCall/model_1/block7_sepconv1/separable_conv2d_bn_offset", "op": "Const", "attr": {"value": {"tensor": {"dtype": "DT_FLOAT", "tensorShape": {"dim": [{"size": "728"}]}}}, "dtype": {"type": "DT_FLOAT"}}}, {"name": "StatefulPartitionedCall/model_1/block7_sepconv2/separable_conv2d_weights", "op": "Const", "attr": {"dtype": {"type": "DT_FLOAT"}, "value": {"tensor": {"dtype": "DT_FLOAT", "tensorShape": {"dim": [{"size": "1"}, {"size": "1"}, {"size": "728"}, {"size": "728"}]}}}}}, {"name": "StatefulPartitionedCall/model_1/block7_sepconv2/separable_conv2d_bn_offset", "op": "Const", "attr": {"dtype": {"type": "DT_FLOAT"}, "value": {"tensor": {"dtype": "DT_FLOAT", "tensorShape": {"dim": [{"size": "728"}]}}}}}, {"name": "StatefulPartitionedCall/model_1/conv2d_7/Conv2D_weights", "op": "Const", "attr": {"value": {"tensor": {"dtype": "DT_FLOAT", "tensorShape": {"dim": [{"size": "1"}, {"size": "1"}, {"size": "728"}, {"size": "1024"}]}}}, "dtype": {"type": "DT_FLOAT"}}}, {"name": "StatefulPartitionedCall/model_1/block7_sepconv3/separable_conv2d_weights", "op": "Const", "attr": {"value": {"tensor": {"dtype": "DT_FLOAT", "tensorShape": {"dim": [{"size": "1"}, {"size": "1"}, {"size": "728"}, {"size": "728"}]}}}, "dtype": {"type": "DT_FLOAT"}}}, {"name": "StatefulPartitionedCall/model_1/block7_sepconv3/separable_conv2d_bn_offset", "op": "Const", "attr": {"dtype": {"type": "DT_FLOAT"}, "value": {"tensor": {"dtype": "DT_FLOAT", "tensorShape": {"dim": [{"size": "728"}]}}}}}, {"name": "StatefulPartitionedCall/model_1/block8_sepconv1/separable_conv2d_weights", "op": "Const", "attr": {"dtype": {"type": "DT_FLOAT"}, "value": {"tensor": {"dtype": "DT_FLOAT", "tensorShape": {"dim": [{"size": "1"}, {"size": "1"}, {"size": "728"}, {"size": "728"}]}}}}}, {"name": "StatefulPartitionedCall/model_1/conv2d_7/Conv2D_bn_offset", "op": "Const", "attr": {"dtype": {"type": "DT_FLOAT"}, "value": {"tensor": {"dtype": "DT_FLOAT", "tensorShape": {"dim": [{"size": "1024"}]}}}}}, {"name": "StatefulPartitionedCall/model_1/block8_sepconv1/separable_conv2d_bn_offset", "op": "Const", "attr": {"value": {"tensor": {"dtype": "DT_FLOAT", "tensorShape": {"dim": [{"size": "728"}]}}}, "dtype": {"type": "DT_FLOAT"}}}, {"name": "StatefulPartitionedCall/model_1/block8_sepconv2/separable_conv2d_weights", "op": "Const", "attr": {"dtype": {"type": "DT_FLOAT"}, "value": {"tensor": {"dtype": "DT_FLOAT", "tensorShape": {"dim": [{"size": "1"}, {"size": "1"}, {"size": "728"}, {"size": "728"}]}}}}}, {"name": "StatefulPartitionedCall/model_1/block13_sepconv1/separable_conv2d_weights", "op": "Const", "attr": {"dtype": {"type": "DT_FLOAT"}, "value": {"tensor": {"dtype": "DT_FLOAT", "tensorShape": {"dim": [{"size": "1"}, {"size": "1"}, {"size": "728"}, {"size": "728"}]}}}}}, {"name": "StatefulPartitionedCall/model_1/block8_sepconv2/separable_conv2d_bn_offset", "op": "Const", "attr": {"dtype": {"type": "DT_FLOAT"}, "value": {"tensor": {"dtype": "DT_FLOAT", "tensorShape": {"dim": [{"size": "728"}]}}}}}, {"name": "StatefulPartitionedCall/model_1/block8_sepconv3/separable_conv2d_weights", "op": "Const", "attr": {"dtype": {"type": "DT_FLOAT"}, "value": {"tensor": {"dtype": "DT_FLOAT", "tensorShape": {"dim": [{"size": "1"}, {"size": "1"}, {"size": "728"}, {"size": "728"}]}}}}}, {"name": "StatefulPartitionedCall/model_1/block13_sepconv1/separable_conv2d_bn_offset", "op": "Const", "attr": {"dtype": {"type": "DT_FLOAT"}, "value": {"tensor": {"dtype": "DT_FLOAT", "tensorShape": {"dim": [{"size": "728"}]}}}}}, {"name": "StatefulPartitionedCall/model_1/block8_sepconv3/separable_conv2d_bn_offset", "op": "Const", "attr": {"value": {"tensor": {"dtype": "DT_FLOAT", "tensorShape": {"dim": [{"size": "728"}]}}}, "dtype": {"type": "DT_FLOAT"}}}, {"name": "StatefulPartitionedCall/model_1/block9_sepconv1/separable_conv2d_weights", "op": "Const", "attr": {"value": {"tensor": {"dtype": "DT_FLOAT", "tensorShape": {"dim": [{"size": "1"}, {"size": "1"}, {"size": "728"}, {"size": "728"}]}}}, "dtype": {"type": "DT_FLOAT"}}}, {"name": "StatefulPartitionedCall/model_1/block9_sepconv1/separable_conv2d_bn_offset", "op": "Const", "attr": {"value": {"tensor": {"dtype": "DT_FLOAT", "tensorShape": {"dim": [{"size": "728"}]}}}, "dtype": {"type": "DT_FLOAT"}}}, {"name": "StatefulPartitionedCall/model_1/block9_sepconv2/separable_conv2d_weights", "op": "Const", "attr": {"value": {"tensor": {"dtype": "DT_FLOAT", "tensorShape": {"dim": [{"size": "1"}, {"size": "1"}, {"size": "728"}, {"size": "728"}]}}}, "dtype": {"type": "DT_FLOAT"}}}, {"name": "StatefulPartitionedCall/model_1/block9_sepconv2/separable_conv2d_bn_offset", "op": "Const", "attr": {"value": {"tensor": {"dtype": "DT_FLOAT", "tensorShape": {"dim": [{"size": "728"}]}}}, "dtype": {"type": "DT_FLOAT"}}}, {"name": "StatefulPartitionedCall/model_1/block13_sepconv2/separable_conv2d_weights", "op": "Const", "attr": {"dtype": {"type": "DT_FLOAT"}, "value": {"tensor": {"dtype": "DT_FLOAT", "tensorShape": {"dim": [{"size": "1"}, {"size": "1"}, {"size": "728"}, {"size": "1024"}]}}}}}, {"name": "StatefulPartitionedCall/model_1/block9_sepconv3/separable_conv2d_weights", "op": "Const", "attr": {"value": {"tensor": {"dtype": "DT_FLOAT", "tensorShape": {"dim": [{"size": "1"}, {"size": "1"}, {"size": "728"}, {"size": "728"}]}}}, "dtype": {"type": "DT_FLOAT"}}}, {"name": "StatefulPartitionedCall/model_1/block9_sepconv3/separable_conv2d_bn_offset", "op": "Const", "attr": {"value": {"tensor": {"dtype": "DT_FLOAT", "tensorShape": {"dim": [{"size": "728"}]}}}, "dtype": {"type": "DT_FLOAT"}}}, {"name": "StatefulPartitionedCall/model_1/block10_sepconv1/separable_conv2d_weights", "op": "Const", "attr": {"dtype": {"type": "DT_FLOAT"}, "value": {"tensor": {"dtype": "DT_FLOAT", "tensorShape": {"dim": [{"size": "1"}, {"size": "1"}, {"size": "728"}, {"size": "728"}]}}}}}, {"name": "StatefulPartitionedCall/model_1/block13_sepconv2/separable_conv2d_bn_offset", "op": "Const", "attr": {"dtype": {"type": "DT_FLOAT"}, "value": {"tensor": {"dtype": "DT_FLOAT", "tensorShape": {"dim": [{"size": "1024"}]}}}}}, {"name": "StatefulPartitionedCall/model_1/block10_sepconv1/separable_conv2d_bn_offset", "op": "Const", "attr": {"dtype": {"type": "DT_FLOAT"}, "value": {"tensor": {"dtype": "DT_FLOAT", "tensorShape": {"dim": [{"size": "728"}]}}}}}, {"name": "StatefulPartitionedCall/model_1/block10_sepconv2/separable_conv2d_weights", "op": "Const", "attr": {"dtype": {"type": "DT_FLOAT"}, "value": {"tensor": {"dtype": "DT_FLOAT", "tensorShape": {"dim": [{"size": "1"}, {"size": "1"}, {"size": "728"}, {"size": "728"}]}}}}}, {"name": "StatefulPartitionedCall/model_1/block10_sepconv2/separable_conv2d_bn_offset", "op": "Const", "attr": {"value": {"tensor": {"dtype": "DT_FLOAT", "tensorShape": {"dim": [{"size": "728"}]}}}, "dtype": {"type": "DT_FLOAT"}}}, {"name": "StatefulPartitionedCall/model_1/block10_sepconv3/separable_conv2d_weights", "op": "Const", "attr": {"value": {"tensor": {"dtype": "DT_FLOAT", "tensorShape": {"dim": [{"size": "1"}, {"size": "1"}, {"size": "728"}, {"size": "728"}]}}}, "dtype": {"type": "DT_FLOAT"}}}, {"name": "StatefulPartitionedCall/model_1/block10_sepconv3/separable_conv2d_bn_offset", "op": "Const", "attr": {"value": {"tensor": {"dtype": "DT_FLOAT", "tensorShape": {"dim": [{"size": "728"}]}}}, "dtype": {"type": "DT_FLOAT"}}}, {"name": "StatefulPartitionedCall/model_1/block11_sepconv1/separable_conv2d_weights", "op": "Const", "attr": {"value": {"tensor": {"dtype": "DT_FLOAT", "tensorShape": {"dim": [{"size": "1"}, {"size": "1"}, {"size": "728"}, {"size": "728"}]}}}, "dtype": {"type": "DT_FLOAT"}}}, {"name": "StatefulPartitionedCall/model_1/block14_sepconv1/separable_conv2d_weights", "op": "Const", "attr": {"dtype": {"type": "DT_FLOAT"}, "value": {"tensor": {"dtype": "DT_FLOAT", "tensorShape": {"dim": [{"size": "1"}, {"size": "1"}, {"size": "1024"}, {"size": "1536"}]}}}}}, {"name": "StatefulPartitionedCall/model_1/block11_sepconv1/separable_conv2d_bn_offset", "op": "Const", "attr": {"dtype": {"type": "DT_FLOAT"}, "value": {"tensor": {"dtype": "DT_FLOAT", "tensorShape": {"dim": [{"size": "728"}]}}}}}, {"name": "StatefulPartitionedCall/model_1/block11_sepconv2/separable_conv2d_weights", "op": "Const", "attr": {"value": {"tensor": {"dtype": "DT_FLOAT", "tensorShape": {"dim": [{"size": "1"}, {"size": "1"}, {"size": "728"}, {"size": "728"}]}}}, "dtype": {"type": "DT_FLOAT"}}}, {"name": "StatefulPartitionedCall/model_1/block14_sepconv1/separable_conv2d_bn_offset", "op": "Const", "attr": {"value": {"tensor": {"dtype": "DT_FLOAT", "tensorShape": {"dim": [{"size": "1536"}]}}}, "dtype": {"type": "DT_FLOAT"}}}, {"name": "StatefulPartitionedCall/model_1/block11_sepconv2/separable_conv2d_bn_offset", "op": "Const", "attr": {"dtype": {"type": "DT_FLOAT"}, "value": {"tensor": {"dtype": "DT_FLOAT", "tensorShape": {"dim": [{"size": "728"}]}}}}}, {"name": "StatefulPartitionedCall/model_1/block1_conv1_act/Relu", "op": "_FusedConv2D", "input": ["input_2", "StatefulPartitionedCall/model_1/block1_conv1/Conv2D_weights", "StatefulPartitionedCall/model_1/block1_conv1/Conv2D_bn_offset"], "device": "/device:CPU:0", "attr": {"data_format": {"s": "TkhXQw=="}, "T": {"type": "DT_FLOAT"}, "dilations": {"list": {"i": ["1", "1", "1", "1"]}}, "padding": {"s": "VkFMSUQ="}, "fused_ops": {"list": {"s": ["Qmlhc0FkZA==", "UmVsdQ=="]}}, "num_args": {"i": "1"}, "epsilon": {"f": 0.0}, "use_cudnn_on_gpu": {"b": true}, "strides": {"list": {"i": ["1", "2", "2", "1"]}}, "explicit_paddings": {"list": {}}}}, {"name": "StatefulPartitionedCall/model_1/block1_conv2_act/Relu", "op": "_FusedConv2D", "input": ["StatefulPartitionedCall/model_1/block1_conv1_act/Relu", "StatefulPartitionedCall/model_1/block1_conv2/Conv2D_weights", "StatefulPartitionedCall/model_1/block1_conv2/Conv2D_bn_offset"], "device": "/device:CPU:0", "attr": {"T": {"type": "DT_FLOAT"}, "num_args": {"i": "1"}, "epsilon": {"f": 0.0}, "fused_ops": {"list": {"s": ["Qmlhc0FkZA==", "UmVsdQ=="]}}, "padding": {"s": "VkFMSUQ="}, "explicit_paddings": {"list": {}}, "use_cudnn_on_gpu": {"b": true}, "data_format": {"s": "TkhXQw=="}, "dilations": {"list": {"i": ["1", "1", "1", "1"]}}, "strides": {"list": {"i": ["1", "1", "1", "1"]}}}}, {"name": "StatefulPartitionedCall/model_1/block2_sepconv1/separable_conv2d/depthwise", "op": "DepthwiseConv2dNative", "input": ["StatefulPartitionedCall/model_1/block1_conv2_act/Relu", "StatefulPartitionedCall/model_1/block2_sepconv1/separable_conv2d/ReadVariableOp"], "attr": {"T": {"type": "DT_FLOAT"}, "explicit_paddings": {"list": {}}, "dilations": {"list": {"i": ["1", "1", "1", "1"]}}, "padding": {"s": "U0FNRQ=="}, "strides": {"list": {"i": ["1", "1", "1", "1"]}}, "data_format": {"s": "TkhXQw=="}}}, {"name": "StatefulPartitionedCall/model_1/batch_normalization_4/FusedBatchNormV3", "op": "_FusedConv2D", "input": ["StatefulPartitionedCall/model_1/block1_conv2_act/Relu", "StatefulPartitionedCall/model_1/conv2d_4/Conv2D_weights", "StatefulPartitionedCall/model_1/conv2d_4/Conv2D_bn_offset"], "device": "/device:CPU:0", "attr": {"explicit_paddings": {"list": {}}, "data_format": {"s": "TkhXQw=="}, "fused_ops": {"list": {"s": ["Qmlhc0FkZA=="]}}, "strides": {"list": {"i": ["1", "2", "2", "1"]}}, "dilations": {"list": {"i": ["1", "1", "1", "1"]}}, "epsilon": {"f": 0.0}, "padding": {"s": "U0FNRQ=="}, "T": {"type": "DT_FLOAT"}, "num_args": {"i": "1"}, "use_cudnn_on_gpu": {"b": true}}}, {"name": "StatefulPartitionedCall/model_1/block2_sepconv2_act/Relu", "op": "_FusedConv2D", "input": ["StatefulPartitionedCall/model_1/block2_sepconv1/separable_conv2d/depthwise", "StatefulPartitionedCall/model_1/block2_sepconv1/separable_conv2d_weights", "StatefulPartitionedCall/model_1/block2_sepconv1/separable_conv2d_bn_offset"], "device": "/device:CPU:0", "attr": {"data_format": {"s": "TkhXQw=="}, "explicit_paddings": {"list": {}}, "dilations": {"list": {"i": ["1", "1", "1", "1"]}}, "T": {"type": "DT_FLOAT"}, "num_args": {"i": "1"}, "epsilon": {"f": 0.0}, "padding": {"s": "VkFMSUQ="}, "use_cudnn_on_gpu": {"b": true}, "strides": {"list": {"i": ["1", "1", "1", "1"]}}, "fused_ops": {"list": {"s": ["Qmlhc0FkZA==", "UmVsdQ=="]}}}}, {"name": "StatefulPartitionedCall/model_1/block2_sepconv2/separable_conv2d/depthwise", "op": "DepthwiseConv2dNative", "input": ["StatefulPartitionedCall/model_1/block2_sepconv2_act/Relu", "StatefulPartitionedCall/model_1/block2_sepconv2/separable_conv2d/ReadVariableOp"], "attr": {"explicit_paddings": {"list": {}}, "padding": {"s": "U0FNRQ=="}, "dilations": {"list": {"i": ["1", "1", "1", "1"]}}, "T": {"type": "DT_FLOAT"}, "strides": {"list": {"i": ["1", "1", "1", "1"]}}, "data_format": {"s": "TkhXQw=="}}}, {"name": "StatefulPartitionedCall/model_1/block2_sepconv2_bn/FusedBatchNormV3", "op": "_FusedConv2D", "input": ["StatefulPartitionedCall/model_1/block2_sepconv2/separable_conv2d/depthwise", "StatefulPartitionedCall/model_1/block2_sepconv2/separable_conv2d_weights", "StatefulPartitionedCall/model_1/block2_sepconv2/separable_conv2d_bn_offset"], "device": "/device:CPU:0", "attr": {"T": {"type": "DT_FLOAT"}, "padding": {"s": "VkFMSUQ="}, "dilations": {"list": {"i": ["1", "1", "1", "1"]}}, "fused_ops": {"list": {"s": ["Qmlhc0FkZA=="]}}, "use_cudnn_on_gpu": {"b": true}, "num_args": {"i": "1"}, "data_format": {"s": "TkhXQw=="}, "epsilon": {"f": 0.0}, "strides": {"list": {"i": ["1", "1", "1", "1"]}}, "explicit_paddings": {"list": {}}}}, {"name": "StatefulPartitionedCall/model_1/block2_pool/MaxPool", "op": "MaxPool", "input": ["StatefulPartitionedCall/model_1/block2_sepconv2_bn/FusedBatchNormV3"], "attr": {"padding": {"s": "U0FNRQ=="}, "T": {"type": "DT_FLOAT"}, "strides": {"list": {"i": ["1", "2", "2", "1"]}}, "explicit_paddings": {"list": {}}, "ksize": {"list": {"i": ["1", "3", "3", "1"]}}, "data_format": {"s": "TkhXQw=="}}}, {"name": "StatefulPartitionedCall/model_1/add_12/add", "op": "AddV2", "input": ["StatefulPartitionedCall/model_1/block2_pool/MaxPool", "StatefulPartitionedCall/model_1/batch_normalization_4/FusedBatchNormV3"], "attr": {"T": {"type": "DT_FLOAT"}}}, {"name": "StatefulPartitionedCall/model_1/block3_sepconv1_act/Relu", "op": "Relu", "input": ["StatefulPartitionedCall/model_1/add_12/add"], "attr": {"T": {"type": "DT_FLOAT"}}}, {"name": "StatefulPartitionedCall/model_1/batch_normalization_5/FusedBatchNormV3", "op": "_FusedConv2D", "input": ["StatefulPartitionedCall/model_1/add_12/add", "StatefulPartitionedCall/model_1/conv2d_5/Conv2D_weights", "StatefulPartitionedCall/model_1/conv2d_5/Conv2D_bn_offset"], "device": "/device:CPU:0", "attr": {"num_args": {"i": "1"}, "use_cudnn_on_gpu": {"b": true}, "data_format": {"s": "TkhXQw=="}, "strides": {"list": {"i": ["1", "2", "2", "1"]}}, "T": {"type": "DT_FLOAT"}, "explicit_paddings": {"list": {}}, "epsilon": {"f": 0.0}, "dilations": {"list": {"i": ["1", "1", "1", "1"]}}, "padding": {"s": "U0FNRQ=="}, "fused_ops": {"list": {"s": ["Qmlhc0FkZA=="]}}}}, {"name": "StatefulPartitionedCall/model_1/block3_sepconv1/separable_conv2d/depthwise", "op": "DepthwiseConv2dNative", "input": ["StatefulPartitionedCall/model_1/block3_sepconv1_act/Relu", "StatefulPartitionedCall/model_1/block3_sepconv1/separable_conv2d/ReadVariableOp"], "attr": {"explicit_paddings": {"list": {}}, "T": {"type": "DT_FLOAT"}, "data_format": {"s": "TkhXQw=="}, "padding": {"s": "U0FNRQ=="}, "strides": {"list": {"i": ["1", "1", "1", "1"]}}, "dilations": {"list": {"i": ["1", "1", "1", "1"]}}}}, {"name": "StatefulPartitionedCall/model_1/block3_sepconv2_act/Relu", "op": "_FusedConv2D", "input": ["StatefulPartitionedCall/model_1/block3_sepconv1/separable_conv2d/depthwise", "StatefulPartitionedCall/model_1/block3_sepconv1/separable_conv2d_weights", "StatefulPartitionedCall/model_1/block3_sepconv1/separable_conv2d_bn_offset"], "device": "/device:CPU:0", "attr": {"dilations": {"list": {"i": ["1", "1", "1", "1"]}}, "num_args": {"i": "1"}, "explicit_paddings": {"list": {}}, "padding": {"s": "VkFMSUQ="}, "epsilon": {"f": 0.0}, "fused_ops": {"list": {"s": ["Qmlhc0FkZA==", "UmVsdQ=="]}}, "use_cudnn_on_gpu": {"b": true}, "data_format": {"s": "TkhXQw=="}, "T": {"type": "DT_FLOAT"}, "strides": {"list": {"i": ["1", "1", "1", "1"]}}}}, {"name": "StatefulPartitionedCall/model_1/block3_sepconv2/separable_conv2d/depthwise", "op": "DepthwiseConv2dNative", "input": ["StatefulPartitionedCall/model_1/block3_sepconv2_act/Relu", "StatefulPartitionedCall/model_1/block3_sepconv2/separable_conv2d/ReadVariableOp"], "attr": {"T": {"type": "DT_FLOAT"}, "strides": {"list": {"i": ["1", "1", "1", "1"]}}, "padding": {"s": "U0FNRQ=="}, "explicit_paddings": {"list": {}}, "data_format": {"s": "TkhXQw=="}, "dilations": {"list": {"i": ["1", "1", "1", "1"]}}}}, {"name": "StatefulPartitionedCall/model_1/block3_sepconv2_bn/FusedBatchNormV3", "op": "_FusedConv2D", "input": ["StatefulPartitionedCall/model_1/block3_sepconv2/separable_conv2d/depthwise", "StatefulPartitionedCall/model_1/block3_sepconv2/separable_conv2d_weights", "StatefulPartitionedCall/model_1/block3_sepconv2/separable_conv2d_bn_offset"], "device": "/device:CPU:0", "attr": {"epsilon": {"f": 0.0}, "fused_ops": {"list": {"s": ["Qmlhc0FkZA=="]}}, "num_args": {"i": "1"}, "padding": {"s": "VkFMSUQ="}, "data_format": {"s": "TkhXQw=="}, "explicit_paddings": {"list": {}}, "use_cudnn_on_gpu": {"b": true}, "dilations": {"list": {"i": ["1", "1", "1", "1"]}}, "T": {"type": "DT_FLOAT"}, "strides": {"list": {"i": ["1", "1", "1", "1"]}}}}, {"name": "StatefulPartitionedCall/model_1/block3_pool/MaxPool", "op": "MaxPool", "input": ["StatefulPartitionedCall/model_1/block3_sepconv2_bn/FusedBatchNormV3"], "attr": {"padding": {"s": "U0FNRQ=="}, "ksize": {"list": {"i": ["1", "3", "3", "1"]}}, "T": {"type": "DT_FLOAT"}, "data_format": {"s": "TkhXQw=="}, "explicit_paddings": {"list": {}}, "strides": {"list": {"i": ["1", "2", "2", "1"]}}}}, {"name": "StatefulPartitionedCall/model_1/add_13/add", "op": "AddV2", "input": ["StatefulPartitionedCall/model_1/block3_pool/MaxPool", "StatefulPartitionedCall/model_1/batch_normalization_5/FusedBatchNormV3"], "attr": {"T": {"type": "DT_FLOAT"}}}, {"name": "StatefulPartitionedCall/model_1/block4_sepconv1_act/Relu", "op": "Relu", "input": ["StatefulPartitionedCall/model_1/add_13/add"], "attr": {"T": {"type": "DT_FLOAT"}}}, {"name": "StatefulPartitionedCall/model_1/batch_normalization_6/FusedBatchNormV3", "op": "_FusedConv2D", "input": ["StatefulPartitionedCall/model_1/add_13/add", "StatefulPartitionedCall/model_1/conv2d_6/Conv2D_weights", "StatefulPartitionedCall/model_1/conv2d_6/Conv2D_bn_offset"], "device": "/device:CPU:0", "attr": {"explicit_paddings": {"list": {}}, "strides": {"list": {"i": ["1", "2", "2", "1"]}}, "dilations": {"list": {"i": ["1", "1", "1", "1"]}}, "epsilon": {"f": 0.0}, "data_format": {"s": "TkhXQw=="}, "fused_ops": {"list": {"s": ["Qmlhc0FkZA=="]}}, "T": {"type": "DT_FLOAT"}, "use_cudnn_on_gpu": {"b": true}, "num_args": {"i": "1"}, "padding": {"s": "U0FNRQ=="}}}, {"name": "StatefulPartitionedCall/model_1/block4_sepconv1/separable_conv2d/depthwise", "op": "DepthwiseConv2dNative", "input": ["StatefulPartitionedCall/model_1/block4_sepconv1_act/Relu", "StatefulPartitionedCall/model_1/block4_sepconv1/separable_conv2d/ReadVariableOp"], "attr": {"data_format": {"s": "TkhXQw=="}, "dilations": {"list": {"i": ["1", "1", "1", "1"]}}, "strides": {"list": {"i": ["1", "1", "1", "1"]}}, "explicit_paddings": {"list": {}}, "T": {"type": "DT_FLOAT"}, "padding": {"s": "U0FNRQ=="}}}, {"name": "StatefulPartitionedCall/model_1/block4_sepconv2_act/Relu", "op": "_FusedConv2D", "input": ["StatefulPartitionedCall/model_1/block4_sepconv1/separable_conv2d/depthwise", "StatefulPartitionedCall/model_1/block4_sepconv1/separable_conv2d_weights", "StatefulPartitionedCall/model_1/block4_sepconv1/separable_conv2d_bn_offset"], "device": "/device:CPU:0", "attr": {"explicit_paddings": {"list": {}}, "dilations": {"list": {"i": ["1", "1", "1", "1"]}}, "use_cudnn_on_gpu": {"b": true}, "epsilon": {"f": 0.0}, "num_args": {"i": "1"}, "padding": {"s": "VkFMSUQ="}, "data_format": {"s": "TkhXQw=="}, "fused_ops": {"list": {"s": ["Qmlhc0FkZA==", "UmVsdQ=="]}}, "T": {"type": "DT_FLOAT"}, "strides": {"list": {"i": ["1", "1", "1", "1"]}}}}, {"name": "StatefulPartitionedCall/model_1/block4_sepconv2/separable_conv2d/depthwise", "op": "DepthwiseConv2dNative", "input": ["StatefulPartitionedCall/model_1/block4_sepconv2_act/Relu", "StatefulPartitionedCall/model_1/block4_sepconv2/separable_conv2d/ReadVariableOp"], "attr": {"T": {"type": "DT_FLOAT"}, "explicit_paddings": {"list": {}}, "padding": {"s": "U0FNRQ=="}, "dilations": {"list": {"i": ["1", "1", "1", "1"]}}, "data_format": {"s": "TkhXQw=="}, "strides": {"list": {"i": ["1", "1", "1", "1"]}}}}, {"name": "StatefulPartitionedCall/model_1/block4_sepconv2_bn/FusedBatchNormV3", "op": "_FusedConv2D", "input": ["StatefulPartitionedCall/model_1/block4_sepconv2/separable_conv2d/depthwise", "StatefulPartitionedCall/model_1/block4_sepconv2/separable_conv2d_weights", "StatefulPartitionedCall/model_1/block4_sepconv2/separable_conv2d_bn_offset"], "device": "/device:CPU:0", "attr": {"fused_ops": {"list": {"s": ["Qmlhc0FkZA=="]}}, "explicit_paddings": {"list": {}}, "dilations": {"list": {"i": ["1", "1", "1", "1"]}}, "T": {"type": "DT_FLOAT"}, "use_cudnn_on_gpu": {"b": true}, "padding": {"s": "VkFMSUQ="}, "num_args": {"i": "1"}, "strides": {"list": {"i": ["1", "1", "1", "1"]}}, "epsilon": {"f": 0.0}, "data_format": {"s": "TkhXQw=="}}}, {"name": "StatefulPartitionedCall/model_1/block4_pool/MaxPool", "op": "MaxPool", "input": ["StatefulPartitionedCall/model_1/block4_sepconv2_bn/FusedBatchNormV3"], "attr": {"explicit_paddings": {"list": {}}, "strides": {"list": {"i": ["1", "2", "2", "1"]}}, "ksize": {"list": {"i": ["1", "3", "3", "1"]}}, "padding": {"s": "U0FNRQ=="}, "T": {"type": "DT_FLOAT"}, "data_format": {"s": "TkhXQw=="}}}, {"name": "StatefulPartitionedCall/model_1/add_14/add", "op": "AddV2", "input": ["StatefulPartitionedCall/model_1/block4_pool/MaxPool", "StatefulPartitionedCall/model_1/batch_normalization_6/FusedBatchNormV3"], "attr": {"T": {"type": "DT_FLOAT"}}}, {"name": "StatefulPartitionedCall/model_1/block5_sepconv1_act/Relu", "op": "Relu", "input": ["StatefulPartitionedCall/model_1/add_14/add"], "attr": {"T": {"type": "DT_FLOAT"}}}, {"name": "StatefulPartitionedCall/model_1/block5_sepconv1/separable_conv2d/depthwise", "op": "DepthwiseConv2dNative", "input": ["StatefulPartitionedCall/model_1/block5_sepconv1_act/Relu", "StatefulPartitionedCall/model_1/block5_sepconv1/separable_conv2d/ReadVariableOp"], "attr": {"dilations": {"list": {"i": ["1", "1", "1", "1"]}}, "T": {"type": "DT_FLOAT"}, "padding": {"s": "U0FNRQ=="}, "explicit_paddings": {"list": {}}, "data_format": {"s": "TkhXQw=="}, "strides": {"list": {"i": ["1", "1", "1", "1"]}}}}, {"name": "StatefulPartitionedCall/model_1/block5_sepconv2_act/Relu", "op": "_FusedConv2D", "input": ["StatefulPartitionedCall/model_1/block5_sepconv1/separable_conv2d/depthwise", "StatefulPartitionedCall/model_1/block5_sepconv1/separable_conv2d_weights", "StatefulPartitionedCall/model_1/block5_sepconv1/separable_conv2d_bn_offset"], "device": "/device:CPU:0", "attr": {"T": {"type": "DT_FLOAT"}, "num_args": {"i": "1"}, "epsilon": {"f": 0.0}, "fused_ops": {"list": {"s": ["Qmlhc0FkZA==", "UmVsdQ=="]}}, "data_format": {"s": "TkhXQw=="}, "explicit_paddings": {"list": {}}, "dilations": {"list": {"i": ["1", "1", "1", "1"]}}, "use_cudnn_on_gpu": {"b": true}, "strides": {"list": {"i": ["1", "1", "1", "1"]}}, "padding": {"s": "VkFMSUQ="}}}, {"name": "StatefulPartitionedCall/model_1/block5_sepconv2/separable_conv2d/depthwise", "op": "DepthwiseConv2dNative", "input": ["StatefulPartitionedCall/model_1/block5_sepconv2_act/Relu", "StatefulPartitionedCall/model_1/block5_sepconv2/separable_conv2d/ReadVariableOp"], "attr": {"data_format": {"s": "TkhXQw=="}, "padding": {"s": "U0FNRQ=="}, "T": {"type": "DT_FLOAT"}, "strides": {"list": {"i": ["1", "1", "1", "1"]}}, "explicit_paddings": {"list": {}}, "dilations": {"list": {"i": ["1", "1", "1", "1"]}}}}, {"name": "StatefulPartitionedCall/model_1/block5_sepconv3_act/Relu", "op": "_FusedConv2D", "input": ["StatefulPartitionedCall/model_1/block5_sepconv2/separable_conv2d/depthwise", "StatefulPartitionedCall/model_1/block5_sepconv2/separable_conv2d_weights", "StatefulPartitionedCall/model_1/block5_sepconv2/separable_conv2d_bn_offset"], "device": "/device:CPU:0", "attr": {"epsilon": {"f": 0.0}, "dilations": {"list": {"i": ["1", "1", "1", "1"]}}, "data_format": {"s": "TkhXQw=="}, "fused_ops": {"list": {"s": ["Qmlhc0FkZA==", "UmVsdQ=="]}}, "explicit_paddings": {"list": {}}, "strides": {"list": {"i": ["1", "1", "1", "1"]}}, "T": {"type": "DT_FLOAT"}, "num_args": {"i": "1"}, "padding": {"s": "VkFMSUQ="}, "use_cudnn_on_gpu": {"b": true}}}, {"name": "StatefulPartitionedCall/model_1/block5_sepconv3/separable_conv2d/depthwise", "op": "DepthwiseConv2dNative", "input": ["StatefulPartitionedCall/model_1/block5_sepconv3_act/Relu", "StatefulPartitionedCall/model_1/block5_sepconv3/separable_conv2d/ReadVariableOp"], "attr": {"T": {"type": "DT_FLOAT"}, "explicit_paddings": {"list": {}}, "dilations": {"list": {"i": ["1", "1", "1", "1"]}}, "strides": {"list": {"i": ["1", "1", "1", "1"]}}, "data_format": {"s": "TkhXQw=="}, "padding": {"s": "U0FNRQ=="}}}, {"name": "StatefulPartitionedCall/model_1/block5_sepconv3_bn/FusedBatchNormV3", "op": "_FusedConv2D", "input": ["StatefulPartitionedCall/model_1/block5_sepconv3/separable_conv2d/depthwise", "StatefulPartitionedCall/model_1/block5_sepconv3/separable_conv2d_weights", "StatefulPartitionedCall/model_1/block5_sepconv3/separable_conv2d_bn_offset"], "device": "/device:CPU:0", "attr": {"explicit_paddings": {"list": {}}, "epsilon": {"f": 0.0}, "strides": {"list": {"i": ["1", "1", "1", "1"]}}, "use_cudnn_on_gpu": {"b": true}, "T": {"type": "DT_FLOAT"}, "dilations": {"list": {"i": ["1", "1", "1", "1"]}}, "data_format": {"s": "TkhXQw=="}, "padding": {"s": "VkFMSUQ="}, "fused_ops": {"list": {"s": ["Qmlhc0FkZA=="]}}, "num_args": {"i": "1"}}}, {"name": "StatefulPartitionedCall/model_1/add_15/add", "op": "AddV2", "input": ["StatefulPartitionedCall/model_1/block5_sepconv3_bn/FusedBatchNormV3", "StatefulPartitionedCall/model_1/add_14/add"], "attr": {"T": {"type": "DT_FLOAT"}}}, {"name": "StatefulPartitionedCall/model_1/block6_sepconv1_act/Relu", "op": "Relu", "input": ["StatefulPartitionedCall/model_1/add_15/add"], "attr": {"T": {"type": "DT_FLOAT"}}}, {"name": "StatefulPartitionedCall/model_1/block6_sepconv1/separable_conv2d/depthwise", "op": "DepthwiseConv2dNative", "input": ["StatefulPartitionedCall/model_1/block6_sepconv1_act/Relu", "StatefulPartitionedCall/model_1/block6_sepconv1/separable_conv2d/ReadVariableOp"], "attr": {"strides": {"list": {"i": ["1", "1", "1", "1"]}}, "explicit_paddings": {"list": {}}, "data_format": {"s": "TkhXQw=="}, "dilations": {"list": {"i": ["1", "1", "1", "1"]}}, "T": {"type": "DT_FLOAT"}, "padding": {"s": "U0FNRQ=="}}}, {"name": "StatefulPartitionedCall/model_1/block6_sepconv2_act/Relu", "op": "_FusedConv2D", "input": ["StatefulPartitionedCall/model_1/block6_sepconv1/separable_conv2d/depthwise", "StatefulPartitionedCall/model_1/block6_sepconv1/separable_conv2d_weights", "StatefulPartitionedCall/model_1/block6_sepconv1/separable_conv2d_bn_offset"], "device": "/device:CPU:0", "attr": {"num_args": {"i": "1"}, "fused_ops": {"list": {"s": ["Qmlhc0FkZA==", "UmVsdQ=="]}}, "T": {"type": "DT_FLOAT"}, "epsilon": {"f": 0.0}, "strides": {"list": {"i": ["1", "1", "1", "1"]}}, "use_cudnn_on_gpu": {"b": true}, "padding": {"s": "VkFMSUQ="}, "explicit_paddings": {"list": {}}, "dilations": {"list": {"i": ["1", "1", "1", "1"]}}, "data_format": {"s": "TkhXQw=="}}}, {"name": "StatefulPartitionedCall/model_1/block6_sepconv2/separable_conv2d/depthwise", "op": "DepthwiseConv2dNative", "input": ["StatefulPartitionedCall/model_1/block6_sepconv2_act/Relu", "StatefulPartitionedCall/model_1/block6_sepconv2/separable_conv2d/ReadVariableOp"], "attr": {"dilations": {"list": {"i": ["1", "1", "1", "1"]}}, "padding": {"s": "U0FNRQ=="}, "data_format": {"s": "TkhXQw=="}, "explicit_paddings": {"list": {}}, "T": {"type": "DT_FLOAT"}, "strides": {"list": {"i": ["1", "1", "1", "1"]}}}}, {"name": "StatefulPartitionedCall/model_1/block6_sepconv3_act/Relu", "op": "_FusedConv2D", "input": ["StatefulPartitionedCall/model_1/block6_sepconv2/separable_conv2d/depthwise", "StatefulPartitionedCall/model_1/block6_sepconv2/separable_conv2d_weights", "StatefulPartitionedCall/model_1/block6_sepconv2/separable_conv2d_bn_offset"], "device": "/device:CPU:0", "attr": {"explicit_paddings": {"list": {}}, "use_cudnn_on_gpu": {"b": true}, "T": {"type": "DT_FLOAT"}, "padding": {"s": "VkFMSUQ="}, "dilations": {"list": {"i": ["1", "1", "1", "1"]}}, "epsilon": {"f": 0.0}, "data_format": {"s": "TkhXQw=="}, "fused_ops": {"list": {"s": ["Qmlhc0FkZA==", "UmVsdQ=="]}}, "num_args": {"i": "1"}, "strides": {"list": {"i": ["1", "1", "1", "1"]}}}}, {"name": "StatefulPartitionedCall/model_1/block6_sepconv3/separable_conv2d/depthwise", "op": "DepthwiseConv2dNative", "input": ["StatefulPartitionedCall/model_1/block6_sepconv3_act/Relu", "StatefulPartitionedCall/model_1/block6_sepconv3/separable_conv2d/ReadVariableOp"], "attr": {"dilations": {"list": {"i": ["1", "1", "1", "1"]}}, "data_format": {"s": "TkhXQw=="}, "strides": {"list": {"i": ["1", "1", "1", "1"]}}, "T": {"type": "DT_FLOAT"}, "padding": {"s": "U0FNRQ=="}, "explicit_paddings": {"list": {}}}}, {"name": "StatefulPartitionedCall/model_1/block6_sepconv3_bn/FusedBatchNormV3", "op": "_FusedConv2D", "input": ["StatefulPartitionedCall/model_1/block6_sepconv3/separable_conv2d/depthwise", "StatefulPartitionedCall/model_1/block6_sepconv3/separable_conv2d_weights", "StatefulPartitionedCall/model_1/block6_sepconv3/separable_conv2d_bn_offset"], "device": "/device:CPU:0", "attr": {"padding": {"s": "VkFMSUQ="}, "epsilon": {"f": 0.0}, "data_format": {"s": "TkhXQw=="}, "fused_ops": {"list": {"s": ["Qmlhc0FkZA=="]}}, "num_args": {"i": "1"}, "dilations": {"list": {"i": ["1", "1", "1", "1"]}}, "T": {"type": "DT_FLOAT"}, "use_cudnn_on_gpu": {"b": true}, "strides": {"list": {"i": ["1", "1", "1", "1"]}}, "explicit_paddings": {"list": {}}}}, {"name": "StatefulPartitionedCall/model_1/add_16/add", "op": "AddV2", "input": ["StatefulPartitionedCall/model_1/block6_sepconv3_bn/FusedBatchNormV3", "StatefulPartitionedCall/model_1/add_15/add"], "attr": {"T": {"type": "DT_FLOAT"}}}, {"name": "StatefulPartitionedCall/model_1/block7_sepconv1_act/Relu", "op": "Relu", "input": ["StatefulPartitionedCall/model_1/add_16/add"], "attr": {"T": {"type": "DT_FLOAT"}}}, {"name": "StatefulPartitionedCall/model_1/block7_sepconv1/separable_conv2d/depthwise", "op": "DepthwiseConv2dNative", "input": ["StatefulPartitionedCall/model_1/block7_sepconv1_act/Relu", "StatefulPartitionedCall/model_1/block7_sepconv1/separable_conv2d/ReadVariableOp"], "attr": {"dilations": {"list": {"i": ["1", "1", "1", "1"]}}, "padding": {"s": "U0FNRQ=="}, "T": {"type": "DT_FLOAT"}, "explicit_paddings": {"list": {}}, "data_format": {"s": "TkhXQw=="}, "strides": {"list": {"i": ["1", "1", "1", "1"]}}}}, {"name": "StatefulPartitionedCall/model_1/block7_sepconv2_act/Relu", "op": "_FusedConv2D", "input": ["StatefulPartitionedCall/model_1/block7_sepconv1/separable_conv2d/depthwise", "StatefulPartitionedCall/model_1/block7_sepconv1/separable_conv2d_weights", "StatefulPartitionedCall/model_1/block7_sepconv1/separable_conv2d_bn_offset"], "device": "/device:CPU:0", "attr": {"strides": {"list": {"i": ["1", "1", "1", "1"]}}, "padding": {"s": "VkFMSUQ="}, "epsilon": {"f": 0.0}, "dilations": {"list": {"i": ["1", "1", "1", "1"]}}, "num_args": {"i": "1"}, "T": {"type": "DT_FLOAT"}, "data_format": {"s": "TkhXQw=="}, "fused_ops": {"list": {"s": ["Qmlhc0FkZA==", "UmVsdQ=="]}}, "explicit_paddings": {"list": {}}, "use_cudnn_on_gpu": {"b": true}}}, {"name": "StatefulPartitionedCall/model_1/block7_sepconv2/separable_conv2d/depthwise", "op": "DepthwiseConv2dNative", "input": ["StatefulPartitionedCall/model_1/block7_sepconv2_act/Relu", "StatefulPartitionedCall/model_1/block7_sepconv2/separable_conv2d/ReadVariableOp"], "attr": {"T": {"type": "DT_FLOAT"}, "data_format": {"s": "TkhXQw=="}, "strides": {"list": {"i": ["1", "1", "1", "1"]}}, "dilations": {"list": {"i": ["1", "1", "1", "1"]}}, "explicit_paddings": {"list": {}}, "padding": {"s": "U0FNRQ=="}}}, {"name": "StatefulPartitionedCall/model_1/block7_sepconv3_act/Relu", "op": "_FusedConv2D", "input": ["StatefulPartitionedCall/model_1/block7_sepconv2/separable_conv2d/depthwise", "StatefulPartitionedCall/model_1/block7_sepconv2/separable_conv2d_weights", "StatefulPartitionedCall/model_1/block7_sepconv2/separable_conv2d_bn_offset"], "device": "/device:CPU:0", "attr": {"T": {"type": "DT_FLOAT"}, "fused_ops": {"list": {"s": ["Qmlhc0FkZA==", "UmVsdQ=="]}}, "explicit_paddings": {"list": {}}, "padding": {"s": "VkFMSUQ="}, "dilations": {"list": {"i": ["1", "1", "1", "1"]}}, "epsilon": {"f": 0.0}, "num_args": {"i": "1"}, "use_cudnn_on_gpu": {"b": true}, "data_format": {"s": "TkhXQw=="}, "strides": {"list": {"i": ["1", "1", "1", "1"]}}}}, {"name": "StatefulPartitionedCall/model_1/block7_sepconv3/separable_conv2d/depthwise", "op": "DepthwiseConv2dNative", "input": ["StatefulPartitionedCall/model_1/block7_sepconv3_act/Relu", "StatefulPartitionedCall/model_1/block7_sepconv3/separable_conv2d/ReadVariableOp"], "attr": {"explicit_paddings": {"list": {}}, "strides": {"list": {"i": ["1", "1", "1", "1"]}}, "padding": {"s": "U0FNRQ=="}, "T": {"type": "DT_FLOAT"}, "data_format": {"s": "TkhXQw=="}, "dilations": {"list": {"i": ["1", "1", "1", "1"]}}}}, {"name": "StatefulPartitionedCall/model_1/block7_sepconv3_bn/FusedBatchNormV3", "op": "_FusedConv2D", "input": ["StatefulPartitionedCall/model_1/block7_sepconv3/separable_conv2d/depthwise", "StatefulPartitionedCall/model_1/block7_sepconv3/separable_conv2d_weights", "StatefulPartitionedCall/model_1/block7_sepconv3/separable_conv2d_bn_offset"], "device": "/device:CPU:0", "attr": {"epsilon": {"f": 0.0}, "padding": {"s": "VkFMSUQ="}, "strides": {"list": {"i": ["1", "1", "1", "1"]}}, "fused_ops": {"list": {"s": ["Qmlhc0FkZA=="]}}, "explicit_paddings": {"list": {}}, "T": {"type": "DT_FLOAT"}, "data_format": {"s": "TkhXQw=="}, "use_cudnn_on_gpu": {"b": true}, "num_args": {"i": "1"}, "dilations": {"list": {"i": ["1", "1", "1", "1"]}}}}, {"name": "StatefulPartitionedCall/model_1/add_17/add", "op": "AddV2", "input": ["StatefulPartitionedCall/model_1/block7_sepconv3_bn/FusedBatchNormV3", "StatefulPartitionedCall/model_1/add_16/add"], "attr": {"T": {"type": "DT_FLOAT"}}}, {"name": "StatefulPartitionedCall/model_1/block8_sepconv1_act/Relu", "op": "Relu", "input": ["StatefulPartitionedCall/model_1/add_17/add"], "attr": {"T": {"type": "DT_FLOAT"}}}, {"name": "StatefulPartitionedCall/model_1/block8_sepconv1/separable_conv2d/depthwise", "op": "DepthwiseConv2dNative", "input": ["StatefulPartitionedCall/model_1/block8_sepconv1_act/Relu", "StatefulPartitionedCall/model_1/block8_sepconv1/separable_conv2d/ReadVariableOp"], "attr": {"explicit_paddings": {"list": {}}, "data_format": {"s": "TkhXQw=="}, "dilations": {"list": {"i": ["1", "1", "1", "1"]}}, "strides": {"list": {"i": ["1", "1", "1", "1"]}}, "padding": {"s": "U0FNRQ=="}, "T": {"type": "DT_FLOAT"}}}, {"name": "StatefulPartitionedCall/model_1/block8_sepconv2_act/Relu", "op": "_FusedConv2D", "input": ["StatefulPartitionedCall/model_1/block8_sepconv1/separable_conv2d/depthwise", "StatefulPartitionedCall/model_1/block8_sepconv1/separable_conv2d_weights", "StatefulPartitionedCall/model_1/block8_sepconv1/separable_conv2d_bn_offset"], "device": "/device:CPU:0", "attr": {"data_format": {"s": "TkhXQw=="}, "fused_ops": {"list": {"s": ["Qmlhc0FkZA==", "UmVsdQ=="]}}, "explicit_paddings": {"list": {}}, "use_cudnn_on_gpu": {"b": true}, "padding": {"s": "VkFMSUQ="}, "T": {"type": "DT_FLOAT"}, "dilations": {"list": {"i": ["1", "1", "1", "1"]}}, "num_args": {"i": "1"}, "strides": {"list": {"i": ["1", "1", "1", "1"]}}, "epsilon": {"f": 0.0}}}, {"name": "StatefulPartitionedCall/model_1/block8_sepconv2/separable_conv2d/depthwise", "op": "DepthwiseConv2dNative", "input": ["StatefulPartitionedCall/model_1/block8_sepconv2_act/Relu", "StatefulPartitionedCall/model_1/block8_sepconv2/separable_conv2d/ReadVariableOp"], "attr": {"padding": {"s": "U0FNRQ=="}, "T": {"type": "DT_FLOAT"}, "strides": {"list": {"i": ["1", "1", "1", "1"]}}, "explicit_paddings": {"list": {}}, "data_format": {"s": "TkhXQw=="}, "dilations": {"list": {"i": ["1", "1", "1", "1"]}}}}, {"name": "StatefulPartitionedCall/model_1/block8_sepconv3_act/Relu", "op": "_FusedConv2D", "input": ["StatefulPartitionedCall/model_1/block8_sepconv2/separable_conv2d/depthwise", "StatefulPartitionedCall/model_1/block8_sepconv2/separable_conv2d_weights", "StatefulPartitionedCall/model_1/block8_sepconv2/separable_conv2d_bn_offset"], "device": "/device:CPU:0", "attr": {"T": {"type": "DT_FLOAT"}, "num_args": {"i": "1"}, "explicit_paddings": {"list": {}}, "dilations": {"list": {"i": ["1", "1", "1", "1"]}}, "data_format": {"s": "TkhXQw=="}, "fused_ops": {"list": {"s": ["Qmlhc0FkZA==", "UmVsdQ=="]}}, "use_cudnn_on_gpu": {"b": true}, "strides": {"list": {"i": ["1", "1", "1", "1"]}}, "epsilon": {"f": 0.0}, "padding": {"s": "VkFMSUQ="}}}, {"name": "StatefulPartitionedCall/model_1/block8_sepconv3/separable_conv2d/depthwise", "op": "DepthwiseConv2dNative", "input": ["StatefulPartitionedCall/model_1/block8_sepconv3_act/Relu", "StatefulPartitionedCall/model_1/block8_sepconv3/separable_conv2d/ReadVariableOp"], "attr": {"dilations": {"list": {"i": ["1", "1", "1", "1"]}}, "explicit_paddings": {"list": {}}, "padding": {"s": "U0FNRQ=="}, "data_format": {"s": "TkhXQw=="}, "strides": {"list": {"i": ["1", "1", "1", "1"]}}, "T": {"type": "DT_FLOAT"}}}, {"name": "StatefulPartitionedCall/model_1/block8_sepconv3_bn/FusedBatchNormV3", "op": "_FusedConv2D", "input": ["StatefulPartitionedCall/model_1/block8_sepconv3/separable_conv2d/depthwise", "StatefulPartitionedCall/model_1/block8_sepconv3/separable_conv2d_weights", "StatefulPartitionedCall/model_1/block8_sepconv3/separable_conv2d_bn_offset"], "device": "/device:CPU:0", "attr": {"padding": {"s": "VkFMSUQ="}, "num_args": {"i": "1"}, "explicit_paddings": {"list": {}}, "fused_ops": {"list": {"s": ["Qmlhc0FkZA=="]}}, "T": {"type": "DT_FLOAT"}, "strides": {"list": {"i": ["1", "1", "1", "1"]}}, "dilations": {"list": {"i": ["1", "1", "1", "1"]}}, "data_format": {"s": "TkhXQw=="}, "use_cudnn_on_gpu": {"b": true}, "epsilon": {"f": 0.0}}}, {"name": "StatefulPartitionedCall/model_1/add_18/add", "op": "AddV2", "input": ["StatefulPartitionedCall/model_1/block8_sepconv3_bn/FusedBatchNormV3", "StatefulPartitionedCall/model_1/add_17/add"], "attr": {"T": {"type": "DT_FLOAT"}}}, {"name": "StatefulPartitionedCall/model_1/block9_sepconv1_act/Relu", "op": "Relu", "input": ["StatefulPartitionedCall/model_1/add_18/add"], "attr": {"T": {"type": "DT_FLOAT"}}}, {"name": "StatefulPartitionedCall/model_1/block9_sepconv1/separable_conv2d/depthwise", "op": "DepthwiseConv2dNative", "input": ["StatefulPartitionedCall/model_1/block9_sepconv1_act/Relu", "StatefulPartitionedCall/model_1/block9_sepconv1/separable_conv2d/ReadVariableOp"], "attr": {"explicit_paddings": {"list": {}}, "dilations": {"list": {"i": ["1", "1", "1", "1"]}}, "strides": {"list": {"i": ["1", "1", "1", "1"]}}, "data_format": {"s": "TkhXQw=="}, "padding": {"s": "U0FNRQ=="}, "T": {"type": "DT_FLOAT"}}}, {"name": "StatefulPartitionedCall/model_1/block9_sepconv2_act/Relu", "op": "_FusedConv2D", "input": ["StatefulPartitionedCall/model_1/block9_sepconv1/separable_conv2d/depthwise", "StatefulPartitionedCall/model_1/block9_sepconv1/separable_conv2d_weights", "StatefulPartitionedCall/model_1/block9_sepconv1/separable_conv2d_bn_offset"], "device": "/device:CPU:0", "attr": {"strides": {"list": {"i": ["1", "1", "1", "1"]}}, "data_format": {"s": "TkhXQw=="}, "explicit_paddings": {"list": {}}, "num_args": {"i": "1"}, "dilations": {"list": {"i": ["1", "1", "1", "1"]}}, "padding": {"s": "VkFMSUQ="}, "T": {"type": "DT_FLOAT"}, "epsilon": {"f": 0.0}, "use_cudnn_on_gpu": {"b": true}, "fused_ops": {"list": {"s": ["Qmlhc0FkZA==", "UmVsdQ=="]}}}}, {"name": "StatefulPartitionedCall/model_1/block9_sepconv2/separable_conv2d/depthwise", "op": "DepthwiseConv2dNative", "input": ["StatefulPartitionedCall/model_1/block9_sepconv2_act/Relu", "StatefulPartitionedCall/model_1/block9_sepconv2/separable_conv2d/ReadVariableOp"], "attr": {"padding": {"s": "U0FNRQ=="}, "dilations": {"list": {"i": ["1", "1", "1", "1"]}}, "T": {"type": "DT_FLOAT"}, "strides": {"list": {"i": ["1", "1", "1", "1"]}}, "explicit_paddings": {"list": {}}, "data_format": {"s": "TkhXQw=="}}}, {"name": "StatefulPartitionedCall/model_1/block9_sepconv3_act/Relu", "op": "_FusedConv2D", "input": ["StatefulPartitionedCall/model_1/block9_sepconv2/separable_conv2d/depthwise", "StatefulPartitionedCall/model_1/block9_sepconv2/separable_conv2d_weights", "StatefulPartitionedCall/model_1/block9_sepconv2/separable_conv2d_bn_offset"], "device": "/device:CPU:0", "attr": {"fused_ops": {"list": {"s": ["Qmlhc0FkZA==", "UmVsdQ=="]}}, "T": {"type": "DT_FLOAT"}, "padding": {"s": "VkFMSUQ="}, "explicit_paddings": {"list": {}}, "num_args": {"i": "1"}, "epsilon": {"f": 0.0}, "data_format": {"s": "TkhXQw=="}, "dilations": {"list": {"i": ["1", "1", "1", "1"]}}, "use_cudnn_on_gpu": {"b": true}, "strides": {"list": {"i": ["1", "1", "1", "1"]}}}}, {"name": "StatefulPartitionedCall/model_1/block9_sepconv3/separable_conv2d/depthwise", "op": "DepthwiseConv2dNative", "input": ["StatefulPartitionedCall/model_1/block9_sepconv3_act/Relu", "StatefulPartitionedCall/model_1/block9_sepconv3/separable_conv2d/ReadVariableOp"], "attr": {"data_format": {"s": "TkhXQw=="}, "dilations": {"list": {"i": ["1", "1", "1", "1"]}}, "padding": {"s": "U0FNRQ=="}, "strides": {"list": {"i": ["1", "1", "1", "1"]}}, "explicit_paddings": {"list": {}}, "T": {"type": "DT_FLOAT"}}}, {"name": "StatefulPartitionedCall/model_1/block9_sepconv3_bn/FusedBatchNormV3", "op": "_FusedConv2D", "input": ["StatefulPartitionedCall/model_1/block9_sepconv3/separable_conv2d/depthwise", "StatefulPartitionedCall/model_1/block9_sepconv3/separable_conv2d_weights", "StatefulPartitionedCall/model_1/block9_sepconv3/separable_conv2d_bn_offset"], "device": "/device:CPU:0", "attr": {"padding": {"s": "VkFMSUQ="}, "num_args": {"i": "1"}, "data_format": {"s": "TkhXQw=="}, "T": {"type": "DT_FLOAT"}, "fused_ops": {"list": {"s": ["Qmlhc0FkZA=="]}}, "dilations": {"list": {"i": ["1", "1", "1", "1"]}}, "explicit_paddings": {"list": {}}, "strides": {"list": {"i": ["1", "1", "1", "1"]}}, "epsilon": {"f": 0.0}, "use_cudnn_on_gpu": {"b": true}}}, {"name": "StatefulPartitionedCall/model_1/add_19/add", "op": "AddV2", "input": ["StatefulPartitionedCall/model_1/block9_sepconv3_bn/FusedBatchNormV3", "StatefulPartitionedCall/model_1/add_18/add"], "attr": {"T": {"type": "DT_FLOAT"}}}, {"name": "StatefulPartitionedCall/model_1/block10_sepconv1_act/Relu", "op": "Relu", "input": ["StatefulPartitionedCall/model_1/add_19/add"], "attr": {"T": {"type": "DT_FLOAT"}}}, {"name": "StatefulPartitionedCall/model_1/block10_sepconv1/separable_conv2d/depthwise", "op": "DepthwiseConv2dNative", "input": ["StatefulPartitionedCall/model_1/block10_sepconv1_act/Relu", "StatefulPartitionedCall/model_1/block10_sepconv1/separable_conv2d/ReadVariableOp"], "attr": {"explicit_paddings": {"list": {}}, "data_format": {"s": "TkhXQw=="}, "T": {"type": "DT_FLOAT"}, "padding": {"s": "U0FNRQ=="}, "dilations": {"list": {"i": ["1", "1", "1", "1"]}}, "strides": {"list": {"i": ["1", "1", "1", "1"]}}}}, {"name": "StatefulPartitionedCall/model_1/block10_sepconv2_act/Relu", "op": "_FusedConv2D", "input": ["StatefulPartitionedCall/model_1/block10_sepconv1/separable_conv2d/depthwise", "StatefulPartitionedCall/model_1/block10_sepconv1/separable_conv2d_weights", "StatefulPartitionedCall/model_1/block10_sepconv1/separable_conv2d_bn_offset"], "device": "/device:CPU:0", "attr": {"T": {"type": "DT_FLOAT"}, "padding": {"s": "VkFMSUQ="}, "dilations": {"list": {"i": ["1", "1", "1", "1"]}}, "explicit_paddings": {"list": {}}, "epsilon": {"f": 0.0}, "data_format": {"s": "TkhXQw=="}, "num_args": {"i": "1"}, "strides": {"list": {"i": ["1", "1", "1", "1"]}}, "fused_ops": {"list": {"s": ["Qmlhc0FkZA==", "UmVsdQ=="]}}, "use_cudnn_on_gpu": {"b": true}}}, {"name": "StatefulPartitionedCall/model_1/block10_sepconv2/separable_conv2d/depthwise", "op": "DepthwiseConv2dNative", "input": ["StatefulPartitionedCall/model_1/block10_sepconv2_act/Relu", "StatefulPartitionedCall/model_1/block10_sepconv2/separable_conv2d/ReadVariableOp"], "attr": {"strides": {"list": {"i": ["1", "1", "1", "1"]}}, "T": {"type": "DT_FLOAT"}, "dilations": {"list": {"i": ["1", "1", "1", "1"]}}, "explicit_paddings": {"list": {}}, "data_format": {"s": "TkhXQw=="}, "padding": {"s": "U0FNRQ=="}}}, {"name": "StatefulPartitionedCall/model_1/block10_sepconv3_act/Relu", "op": "_FusedConv2D", "input": ["StatefulPartitionedCall/model_1/block10_sepconv2/separable_conv2d/depthwise", "StatefulPartitionedCall/model_1/block10_sepconv2/separable_conv2d_weights", "StatefulPartitionedCall/model_1/block10_sepconv2/separable_conv2d_bn_offset"], "device": "/device:CPU:0", "attr": {"explicit_paddings": {"list": {}}, "strides": {"list": {"i": ["1", "1", "1", "1"]}}, "dilations": {"list": {"i": ["1", "1", "1", "1"]}}, "data_format": {"s": "TkhXQw=="}, "fused_ops": {"list": {"s": ["Qmlhc0FkZA==", "UmVsdQ=="]}}, "T": {"type": "DT_FLOAT"}, "padding": {"s": "VkFMSUQ="}, "use_cudnn_on_gpu": {"b": true}, "num_args": {"i": "1"}, "epsilon": {"f": 0.0}}}, {"name": "StatefulPartitionedCall/model_1/block10_sepconv3/separable_conv2d/depthwise", "op": "DepthwiseConv2dNative", "input": ["StatefulPartitionedCall/model_1/block10_sepconv3_act/Relu", "StatefulPartitionedCall/model_1/block10_sepconv3/separable_conv2d/ReadVariableOp"], "attr": {"data_format": {"s": "TkhXQw=="}, "explicit_paddings": {"list": {}}, "padding": {"s": "U0FNRQ=="}, "strides": {"list": {"i": ["1", "1", "1", "1"]}}, "dilations": {"list": {"i": ["1", "1", "1", "1"]}}, "T": {"type": "DT_FLOAT"}}}, {"name": "StatefulPartitionedCall/model_1/block10_sepconv3_bn/FusedBatchNormV3", "op": "_FusedConv2D", "input": ["StatefulPartitionedCall/model_1/block10_sepconv3/separable_conv2d/depthwise", "StatefulPartitionedCall/model_1/block10_sepconv3/separable_conv2d_weights", "StatefulPartitionedCall/model_1/block10_sepconv3/separable_conv2d_bn_offset"], "device": "/device:CPU:0", "attr": {"num_args": {"i": "1"}, "dilations": {"list": {"i": ["1", "1", "1", "1"]}}, "fused_ops": {"list": {"s": ["Qmlhc0FkZA=="]}}, "epsilon": {"f": 0.0}, "explicit_paddings": {"list": {}}, "strides": {"list": {"i": ["1", "1", "1", "1"]}}, "padding": {"s": "VkFMSUQ="}, "use_cudnn_on_gpu": {"b": true}, "T": {"type": "DT_FLOAT"}, "data_format": {"s": "TkhXQw=="}}}, {"name": "StatefulPartitionedCall/model_1/add_20/add", "op": "AddV2", "input": ["StatefulPartitionedCall/model_1/block10_sepconv3_bn/FusedBatchNormV3", "StatefulPartitionedCall/model_1/add_19/add"], "attr": {"T": {"type": "DT_FLOAT"}}}, {"name": "StatefulPartitionedCall/model_1/block11_sepconv1_act/Relu", "op": "Relu", "input": ["StatefulPartitionedCall/model_1/add_20/add"], "attr": {"T": {"type": "DT_FLOAT"}}}, {"name": "StatefulPartitionedCall/model_1/block11_sepconv1/separable_conv2d/depthwise", "op": "DepthwiseConv2dNative", "input": ["StatefulPartitionedCall/model_1/block11_sepconv1_act/Relu", "StatefulPartitionedCall/model_1/block11_sepconv1/separable_conv2d/ReadVariableOp"], "attr": {"explicit_paddings": {"list": {}}, "padding": {"s": "U0FNRQ=="}, "T": {"type": "DT_FLOAT"}, "strides": {"list": {"i": ["1", "1", "1", "1"]}}, "data_format": {"s": "TkhXQw=="}, "dilations": {"list": {"i": ["1", "1", "1", "1"]}}}}, {"name": "StatefulPartitionedCall/model_1/block11_sepconv2_act/Relu", "op": "_FusedConv2D", "input": ["StatefulPartitionedCall/model_1/block11_sepconv1/separable_conv2d/depthwise", "StatefulPartitionedCall/model_1/block11_sepconv1/separable_conv2d_weights", "StatefulPartitionedCall/model_1/block11_sepconv1/separable_conv2d_bn_offset"], "device": "/device:CPU:0", "attr": {"epsilon": {"f": 0.0}, "padding": {"s": "VkFMSUQ="}, "fused_ops": {"list": {"s": ["Qmlhc0FkZA==", "UmVsdQ=="]}}, "T": {"type": "DT_FLOAT"}, "strides": {"list": {"i": ["1", "1", "1", "1"]}}, "explicit_paddings": {"list": {}}, "num_args": {"i": "1"}, "use_cudnn_on_gpu": {"b": true}, "data_format": {"s": "TkhXQw=="}, "dilations": {"list": {"i": ["1", "1", "1", "1"]}}}}, {"name": "StatefulPartitionedCall/model_1/block11_sepconv2/separable_conv2d/depthwise", "op": "DepthwiseConv2dNative", "input": ["StatefulPartitionedCall/model_1/block11_sepconv2_act/Relu", "StatefulPartitionedCall/model_1/block11_sepconv2/separable_conv2d/ReadVariableOp"], "attr": {"T": {"type": "DT_FLOAT"}, "strides": {"list": {"i": ["1", "1", "1", "1"]}}, "dilations": {"list": {"i": ["1", "1", "1", "1"]}}, "data_format": {"s": "TkhXQw=="}, "explicit_paddings": {"list": {}}, "padding": {"s": "U0FNRQ=="}}}, {"name": "StatefulPartitionedCall/model_1/block11_sepconv3_act/Relu", "op": "_FusedConv2D", "input": ["StatefulPartitionedCall/model_1/block11_sepconv2/separable_conv2d/depthwise", "StatefulPartitionedCall/model_1/block11_sepconv2/separable_conv2d_weights", "StatefulPartitionedCall/model_1/block11_sepconv2/separable_conv2d_bn_offset"], "device": "/device:CPU:0", "attr": {"T": {"type": "DT_FLOAT"}, "num_args": {"i": "1"}, "strides": {"list": {"i": ["1", "1", "1", "1"]}}, "explicit_paddings": {"list": {}}, "padding": {"s": "VkFMSUQ="}, "dilations": {"list": {"i": ["1", "1", "1", "1"]}}, "data_format": {"s": "TkhXQw=="}, "fused_ops": {"list": {"s": ["Qmlhc0FkZA==", "UmVsdQ=="]}}, "epsilon": {"f": 0.0}, "use_cudnn_on_gpu": {"b": true}}}, {"name": "StatefulPartitionedCall/model_1/block11_sepconv3/separable_conv2d/depthwise", "op": "DepthwiseConv2dNative", "input": ["StatefulPartitionedCall/model_1/block11_sepconv3_act/Relu", "StatefulPartitionedCall/model_1/block11_sepconv3/separable_conv2d/ReadVariableOp"], "attr": {"padding": {"s": "U0FNRQ=="}, "T": {"type": "DT_FLOAT"}, "strides": {"list": {"i": ["1", "1", "1", "1"]}}, "data_format": {"s": "TkhXQw=="}, "dilations": {"list": {"i": ["1", "1", "1", "1"]}}, "explicit_paddings": {"list": {}}}}, {"name": "StatefulPartitionedCall/model_1/block11_sepconv3_bn/FusedBatchNormV3", "op": "_FusedConv2D", "input": ["StatefulPartitionedCall/model_1/block11_sepconv3/separable_conv2d/depthwise", "StatefulPartitionedCall/model_1/block11_sepconv3/separable_conv2d_weights", "StatefulPartitionedCall/model_1/block11_sepconv3/separable_conv2d_bn_offset"], "device": "/device:CPU:0", "attr": {"strides": {"list": {"i": ["1", "1", "1", "1"]}}, "fused_ops": {"list": {"s": ["Qmlhc0FkZA=="]}}, "use_cudnn_on_gpu": {"b": true}, "epsilon": {"f": 0.0}, "data_format": {"s": "TkhXQw=="}, "explicit_paddings": {"list": {}}, "padding": {"s": "VkFMSUQ="}, "num_args": {"i": "1"}, "T": {"type": "DT_FLOAT"}, "dilations": {"list": {"i": ["1", "1", "1", "1"]}}}}, {"name": "StatefulPartitionedCall/model_1/add_21/add", "op": "AddV2", "input": ["StatefulPartitionedCall/model_1/block11_sepconv3_bn/FusedBatchNormV3", "StatefulPartitionedCall/model_1/add_20/add"], "attr": {"T": {"type": "DT_FLOAT"}}}, {"name": "StatefulPartitionedCall/model_1/block12_sepconv1_act/Relu", "op": "Relu", "input": ["StatefulPartitionedCall/model_1/add_21/add"], "attr": {"T": {"type": "DT_FLOAT"}}}, {"name": "StatefulPartitionedCall/model_1/block12_sepconv1/separable_conv2d/depthwise", "op": "DepthwiseConv2dNative", "input": ["StatefulPartitionedCall/model_1/block12_sepconv1_act/Relu", "StatefulPartitionedCall/model_1/block12_sepconv1/separable_conv2d/ReadVariableOp"], "attr": {"dilations": {"list": {"i": ["1", "1", "1", "1"]}}, "explicit_paddings": {"list": {}}, "padding": {"s": "U0FNRQ=="}, "data_format": {"s": "TkhXQw=="}, "T": {"type": "DT_FLOAT"}, "strides": {"list": {"i": ["1", "1", "1", "1"]}}}}, {"name": "StatefulPartitionedCall/model_1/block12_sepconv2_act/Relu", "op": "_FusedConv2D", "input": ["StatefulPartitionedCall/model_1/block12_sepconv1/separable_conv2d/depthwise", "StatefulPartitionedCall/model_1/block12_sepconv1/separable_conv2d_weights", "StatefulPartitionedCall/model_1/block12_sepconv1/separable_conv2d_bn_offset"], "device": "/device:CPU:0", "attr": {"fused_ops": {"list": {"s": ["Qmlhc0FkZA==", "UmVsdQ=="]}}, "padding": {"s": "VkFMSUQ="}, "data_format": {"s": "TkhXQw=="}, "num_args": {"i": "1"}, "use_cudnn_on_gpu": {"b": true}, "T": {"type": "DT_FLOAT"}, "epsilon": {"f": 0.0}, "explicit_paddings": {"list": {}}, "dilations": {"list": {"i": ["1", "1", "1", "1"]}}, "strides": {"list": {"i": ["1", "1", "1", "1"]}}}}, {"name": "StatefulPartitionedCall/model_1/block12_sepconv2/separable_conv2d/depthwise", "op": "DepthwiseConv2dNative", "input": ["StatefulPartitionedCall/model_1/block12_sepconv2_act/Relu", "StatefulPartitionedCall/model_1/block12_sepconv2/separable_conv2d/ReadVariableOp"], "attr": {"T": {"type": "DT_FLOAT"}, "dilations": {"list": {"i": ["1", "1", "1", "1"]}}, "strides": {"list": {"i": ["1", "1", "1", "1"]}}, "padding": {"s": "U0FNRQ=="}, "explicit_paddings": {"list": {}}, "data_format": {"s": "TkhXQw=="}}}, {"name": "StatefulPartitionedCall/model_1/block12_sepconv3_act/Relu", "op": "_FusedConv2D", "input": ["StatefulPartitionedCall/model_1/block12_sepconv2/separable_conv2d/depthwise", "StatefulPartitionedCall/model_1/block12_sepconv2/separable_conv2d_weights", "StatefulPartitionedCall/model_1/block12_sepconv2/separable_conv2d_bn_offset"], "device": "/device:CPU:0", "attr": {"explicit_paddings": {"list": {}}, "padding": {"s": "VkFMSUQ="}, "strides": {"list": {"i": ["1", "1", "1", "1"]}}, "num_args": {"i": "1"}, "data_format": {"s": "TkhXQw=="}, "fused_ops": {"list": {"s": ["Qmlhc0FkZA==", "UmVsdQ=="]}}, "T": {"type": "DT_FLOAT"}, "epsilon": {"f": 0.0}, "dilations": {"list": {"i": ["1", "1", "1", "1"]}}, "use_cudnn_on_gpu": {"b": true}}}, {"name": "StatefulPartitionedCall/model_1/block12_sepconv3/separable_conv2d/depthwise", "op": "DepthwiseConv2dNative", "input": ["StatefulPartitionedCall/model_1/block12_sepconv3_act/Relu", "StatefulPartitionedCall/model_1/block12_sepconv3/separable_conv2d/ReadVariableOp"], "attr": {"T": {"type": "DT_FLOAT"}, "explicit_paddings": {"list": {}}, "padding": {"s": "U0FNRQ=="}, "strides": {"list": {"i": ["1", "1", "1", "1"]}}, "data_format": {"s": "TkhXQw=="}, "dilations": {"list": {"i": ["1", "1", "1", "1"]}}}}, {"name": "StatefulPartitionedCall/model_1/block12_sepconv3_bn/FusedBatchNormV3", "op": "_FusedConv2D", "input": ["StatefulPartitionedCall/model_1/block12_sepconv3/separable_conv2d/depthwise", "StatefulPartitionedCall/model_1/block12_sepconv3/separable_conv2d_weights", "StatefulPartitionedCall/model_1/block12_sepconv3/separable_conv2d_bn_offset"], "device": "/device:CPU:0", "attr": {"use_cudnn_on_gpu": {"b": true}, "T": {"type": "DT_FLOAT"}, "epsilon": {"f": 0.0}, "strides": {"list": {"i": ["1", "1", "1", "1"]}}, "explicit_paddings": {"list": {}}, "data_format": {"s": "TkhXQw=="}, "dilations": {"list": {"i": ["1", "1", "1", "1"]}}, "fused_ops": {"list": {"s": ["Qmlhc0FkZA=="]}}, "num_args": {"i": "1"}, "padding": {"s": "VkFMSUQ="}}}, {"name": "StatefulPartitionedCall/model_1/add_22/add", "op": "AddV2", "input": ["StatefulPartitionedCall/model_1/block12_sepconv3_bn/FusedBatchNormV3", "StatefulPartitionedCall/model_1/add_21/add"], "attr": {"T": {"type": "DT_FLOAT"}}}, {"name": "StatefulPartitionedCall/model_1/block13_sepconv1_act/Relu", "op": "Relu", "input": ["StatefulPartitionedCall/model_1/add_22/add"], "attr": {"T": {"type": "DT_FLOAT"}}}, {"name": "StatefulPartitionedCall/model_1/batch_normalization_7/FusedBatchNormV3", "op": "_FusedConv2D", "input": ["StatefulPartitionedCall/model_1/add_22/add", "StatefulPartitionedCall/model_1/conv2d_7/Conv2D_weights", "StatefulPartitionedCall/model_1/conv2d_7/Conv2D_bn_offset"], "device": "/device:CPU:0", "attr": {"T": {"type": "DT_FLOAT"}, "explicit_paddings": {"list": {}}, "epsilon": {"f": 0.0}, "use_cudnn_on_gpu": {"b": true}, "padding": {"s": "U0FNRQ=="}, "num_args": {"i": "1"}, "dilations": {"list": {"i": ["1", "1", "1", "1"]}}, "fused_ops": {"list": {"s": ["Qmlhc0FkZA=="]}}, "data_format": {"s": "TkhXQw=="}, "strides": {"list": {"i": ["1", "2", "2", "1"]}}}}, {"name": "StatefulPartitionedCall/model_1/block13_sepconv1/separable_conv2d/depthwise", "op": "DepthwiseConv2dNative", "input": ["StatefulPartitionedCall/model_1/block13_sepconv1_act/Relu", "StatefulPartitionedCall/model_1/block13_sepconv1/separable_conv2d/ReadVariableOp"], "attr": {"explicit_paddings": {"list": {}}, "strides": {"list": {"i": ["1", "1", "1", "1"]}}, "T": {"type": "DT_FLOAT"}, "data_format": {"s": "TkhXQw=="}, "dilations": {"list": {"i": ["1", "1", "1", "1"]}}, "padding": {"s": "U0FNRQ=="}}}, {"name": "StatefulPartitionedCall/model_1/block13_sepconv2_act/Relu", "op": "_FusedConv2D", "input": ["StatefulPartitionedCall/model_1/block13_sepconv1/separable_conv2d/depthwise", "StatefulPartitionedCall/model_1/block13_sepconv1/separable_conv2d_weights", "StatefulPartitionedCall/model_1/block13_sepconv1/separable_conv2d_bn_offset"], "device": "/device:CPU:0", "attr": {"T": {"type": "DT_FLOAT"}, "num_args": {"i": "1"}, "data_format": {"s": "TkhXQw=="}, "dilations": {"list": {"i": ["1", "1", "1", "1"]}}, "epsilon": {"f": 0.0}, "use_cudnn_on_gpu": {"b": true}, "explicit_paddings": {"list": {}}, "fused_ops": {"list": {"s": ["Qmlhc0FkZA==", "UmVsdQ=="]}}, "strides": {"list": {"i": ["1", "1", "1", "1"]}}, "padding": {"s": "VkFMSUQ="}}}, {"name": "StatefulPartitionedCall/model_1/block13_sepconv2/separable_conv2d/depthwise", "op": "DepthwiseConv2dNative", "input": ["StatefulPartitionedCall/model_1/block13_sepconv2_act/Relu", "StatefulPartitionedCall/model_1/block13_sepconv2/separable_conv2d/ReadVariableOp"], "attr": {"dilations": {"list": {"i": ["1", "1", "1", "1"]}}, "strides": {"list": {"i": ["1", "1", "1", "1"]}}, "data_format": {"s": "TkhXQw=="}, "explicit_paddings": {"list": {}}, "padding": {"s": "U0FNRQ=="}, "T": {"type": "DT_FLOAT"}}}, {"name": "StatefulPartitionedCall/model_1/block13_sepconv2_bn/FusedBatchNormV3", "op": "_FusedConv2D", "input": ["StatefulPartitionedCall/model_1/block13_sepconv2/separable_conv2d/depthwise", "StatefulPartitionedCall/model_1/block13_sepconv2/separable_conv2d_weights", "StatefulPartitionedCall/model_1/block13_sepconv2/separable_conv2d_bn_offset"], "device": "/device:CPU:0", "attr": {"T": {"type": "DT_FLOAT"}, "num_args": {"i": "1"}, "fused_ops": {"list": {"s": ["Qmlhc0FkZA=="]}}, "explicit_paddings": {"list": {}}, "epsilon": {"f": 0.0}, "data_format": {"s": "TkhXQw=="}, "padding": {"s": "VkFMSUQ="}, "use_cudnn_on_gpu": {"b": true}, "strides": {"list": {"i": ["1", "1", "1", "1"]}}, "dilations": {"list": {"i": ["1", "1", "1", "1"]}}}}, {"name": "StatefulPartitionedCall/model_1/block13_pool/MaxPool", "op": "MaxPool", "input": ["StatefulPartitionedCall/model_1/block13_sepconv2_bn/FusedBatchNormV3"], "attr": {"ksize": {"list": {"i": ["1", "3", "3", "1"]}}, "data_format": {"s": "TkhXQw=="}, "padding": {"s": "U0FNRQ=="}, "explicit_paddings": {"list": {}}, "T": {"type": "DT_FLOAT"}, "strides": {"list": {"i": ["1", "2", "2", "1"]}}}}, {"name": "StatefulPartitionedCall/model_1/add_23/add", "op": "AddV2", "input": ["StatefulPartitionedCall/model_1/block13_pool/MaxPool", "StatefulPartitionedCall/model_1/batch_normalization_7/FusedBatchNormV3"], "attr": {"T": {"type": "DT_FLOAT"}}}, {"name": "StatefulPartitionedCall/model_1/block14_sepconv1/separable_conv2d/depthwise", "op": "DepthwiseConv2dNative", "input": ["StatefulPartitionedCall/model_1/add_23/add", "StatefulPartitionedCall/model_1/block14_sepconv1/separable_conv2d/ReadVariableOp"], "attr": {"strides": {"list": {"i": ["1", "1", "1", "1"]}}, "data_format": {"s": "TkhXQw=="}, "padding": {"s": "U0FNRQ=="}, "explicit_paddings": {"list": {}}, "T": {"type": "DT_FLOAT"}, "dilations": {"list": {"i": ["1", "1", "1", "1"]}}}}, {"name": "StatefulPartitionedCall/model_1/block14_sepconv1_act/Relu", "op": "_FusedConv2D", "input": ["StatefulPartitionedCall/model_1/block14_sepconv1/separable_conv2d/depthwise", "StatefulPartitionedCall/model_1/block14_sepconv1/separable_conv2d_weights", "StatefulPartitionedCall/model_1/block14_sepconv1/separable_conv2d_bn_offset"], "device": "/device:CPU:0", "attr": {"T": {"type": "DT_FLOAT"}, "strides": {"list": {"i": ["1", "1", "1", "1"]}}, "epsilon": {"f": 0.0}, "num_args": {"i": "1"}, "data_format": {"s": "TkhXQw=="}, "fused_ops": {"list": {"s": ["Qmlhc0FkZA==", "UmVsdQ=="]}}, "dilations": {"list": {"i": ["1", "1", "1", "1"]}}, "explicit_paddings": {"list": {}}, "padding": {"s": "VkFMSUQ="}, "use_cudnn_on_gpu": {"b": true}}}, {"name": "StatefulPartitionedCall/model_1/block14_sepconv2/separable_conv2d/depthwise", "op": "DepthwiseConv2dNative", "input": ["StatefulPartitionedCall/model_1/block14_sepconv1_act/Relu", "StatefulPartitionedCall/model_1/block14_sepconv2/separable_conv2d/ReadVariableOp"], "attr": {"dilations": {"list": {"i": ["1", "1", "1", "1"]}}, "strides": {"list": {"i": ["1", "1", "1", "1"]}}, "padding": {"s": "U0FNRQ=="}, "T": {"type": "DT_FLOAT"}, "data_format": {"s": "TkhXQw=="}, "explicit_paddings": {"list": {}}}}, {"name": "StatefulPartitionedCall/model_1/block14_sepconv2_act/Relu", "op": "_FusedConv2D", "input": ["StatefulPartitionedCall/model_1/block14_sepconv2/separable_conv2d/depthwise", "StatefulPartitionedCall/model_1/block14_sepconv2/separable_conv2d_weights", "StatefulPartitionedCall/model_1/block14_sepconv2/separable_conv2d_bn_offset"], "device": "/device:CPU:0", "attr": {"fused_ops": {"list": {"s": ["Qmlhc0FkZA==", "UmVsdQ=="]}}, "data_format": {"s": "TkhXQw=="}, "use_cudnn_on_gpu": {"b": true}, "epsilon": {"f": 0.0}, "T": {"type": "DT_FLOAT"}, "strides": {"list": {"i": ["1", "1", "1", "1"]}}, "num_args": {"i": "1"}, "padding": {"s": "VkFMSUQ="}, "explicit_paddings": {"list": {}}, "dilations": {"list": {"i": ["1", "1", "1", "1"]}}}}, {"name": "StatefulPartitionedCall/model_1/global_average_pooling2d_1/Mean", "op": "Mean", "input": ["StatefulPartitionedCall/model_1/block14_sepconv2_act/Relu", "StatefulPartitionedCall/model_1/global_average_pooling2d_1/Mean/reduction_indices"], "attr": {"T": {"type": "DT_FLOAT"}, "keep_dims": {"b": false}, "Tidx": {"type": "DT_INT32"}}}, {"name": "StatefulPartitionedCall/model_1/dense_3/Relu", "op": "_FusedMatMul", "input": ["StatefulPartitionedCall/model_1/global_average_pooling2d_1/Mean", "StatefulPartitionedCall/model_1/dense_3/MatMul/ReadVariableOp", "StatefulPartitionedCall/model_1/dense_3/BiasAdd/ReadVariableOp"], "device": "/device:CPU:0", "attr": {"fused_ops": {"list": {"s": ["Qmlhc0FkZA==", "UmVsdQ=="]}}, "T": {"type": "DT_FLOAT"}, "epsilon": {"f": 0.0}, "num_args": {"i": "1"}, "transpose_a": {"b": false}, "transpose_b": {"b": false}}}, {"name": "StatefulPartitionedCall/model_1/dense_4/Relu", "op": "_FusedMatMul", "input": ["StatefulPartitionedCall/model_1/dense_3/Relu", "StatefulPartitionedCall/model_1/dense_4/MatMul/ReadVariableOp", "StatefulPartitionedCall/model_1/dense_4/BiasAdd/ReadVariableOp"], "device": "/device:CPU:0", "attr": {"fused_ops": {"list": {"s": ["Qmlhc0FkZA==", "UmVsdQ=="]}}, "T": {"type": "DT_FLOAT"}, "epsilon": {"f": 0.0}, "transpose_b": {"b": false}, "num_args": {"i": "1"}, "transpose_a": {"b": false}}}, {"name": "StatefulPartitionedCall/model_1/dense_5/Relu", "op": "_FusedMatMul", "input": ["StatefulPartitionedCall/model_1/dense_4/Relu", "StatefulPartitionedCall/model_1/dense_5/MatMul/ReadVariableOp", "StatefulPartitionedCall/model_1/dense_5/BiasAdd/ReadVariableOp"], "device": "/device:CPU:0", "attr": {"fused_ops": {"list": {"s": ["Qmlhc0FkZA==", "UmVsdQ=="]}}, "epsilon": {"f": 0.0}, "transpose_b": {"b": false}, "num_args": {"i": "1"}, "T": {"type": "DT_FLOAT"}, "transpose_a": {"b": false}}}, {"name": "StatefulPartitionedCall/model_1/output/BiasAdd", "op": "_FusedMatMul", "input": ["StatefulPartitionedCall/model_1/dense_5/Relu", "StatefulPartitionedCall/model_1/output/MatMul/ReadVariableOp", "StatefulPartitionedCall/model_1/output/BiasAdd/ReadVariableOp"], "device": "/device:CPU:0", "attr": {"transpose_a": {"b": false}, "num_args": {"i": "1"}, "T": {"type": "DT_FLOAT"}, "transpose_b": {"b": false}, "epsilon": {"f": 0.0}, "fused_ops": {"list": {"s": ["Qmlhc0FkZA=="]}}}}, {"name": "StatefulPartitionedCall/model_1/output/Softmax", "op": "Softmax", "input": ["StatefulPartitionedCall/model_1/output/BiasAdd"], "attr": {"T": {"type": "DT_FLOAT"}}}, {"name": "Identity", "op": "Identity", "input": ["StatefulPartitionedCall/model_1/output/Softmax"], "attr": {"T": {"type": "DT_FLOAT"}}}], "library": {}, "versions": {"producer": 808}}, "weightsManifest": [{"paths": ["group1-shard1of23.bin", "group1-shard2of23.bin", "group1-shard3of23.bin", "group1-shard4of23.bin", "group1-shard5of23.bin", "group1-shard6of23.bin", "group1-shard7of23.bin", "group1-shard8of23.bin", "group1-shard9of23.bin", "group1-shard10of23.bin", "group1-shard11of23.bin", "group1-shard12of23.bin", "group1-shard13of23.bin", "group1-shard14of23.bin", "group1-shard15of23.bin", "group1-shard16of23.bin", "group1-shard17of23.bin", "group1-shard18of23.bin", "group1-shard19of23.bin", "group1-shard20of23.bin", "group1-shard21of23.bin", "group1-shard22of23.bin", "group1-shard23of23.bin"], "weights": [{"name": "StatefulPartitionedCall/model_1/block13_sepconv1/separable_conv2d/ReadVariableOp", "shape": [3, 3, 728, 1], "dtype": "float32"}, {"name": "StatefulPartitionedCall/model_1/block13_sepconv2/separable_conv2d/ReadVariableOp", "shape": [3, 3, 728, 1], "dtype": "float32"}, {"name": "StatefulPartitionedCall/model_1/block12_sepconv1/separable_conv2d/ReadVariableOp", "shape": [3, 3, 728, 1], "dtype": "float32"}, {"name": "StatefulPartitionedCall/model_1/block12_sepconv2/separable_conv2d/ReadVariableOp", "shape": [3, 3, 728, 1], "dtype": "float32"}, {"name": "StatefulPartitionedCall/model_1/block12_sepconv3/separable_conv2d/ReadVariableOp", "shape": [3, 3, 728, 1], "dtype": "float32"}, {"name": "StatefulPartitionedCall/model_1/block11_sepconv1/separable_conv2d/ReadVariableOp", "shape": [3, 3, 728, 1], "dtype": "float32"}, {"name": "StatefulPartitionedCall/model_1/block11_sepconv2/separable_conv2d/ReadVariableOp", "shape": [3, 3, 728, 1], "dtype": "float32"}, {"name": "StatefulPartitionedCall/model_1/block11_sepconv3/separable_conv2d/ReadVariableOp", "shape": [3, 3, 728, 1], "dtype": "float32"}, {"name": "StatefulPartitionedCall/model_1/block10_sepconv1/separable_conv2d/ReadVariableOp", "shape": [3, 3, 728, 1], "dtype": "float32"}, {"name": "StatefulPartitionedCall/model_1/block10_sepconv2/separable_conv2d/ReadVariableOp", "shape": [3, 3, 728, 1], "dtype": "float32"}, {"name": "StatefulPartitionedCall/model_1/block10_sepconv3/separable_conv2d/ReadVariableOp", "shape": [3, 3, 728, 1], "dtype": "float32"}, {"name": "StatefulPartitionedCall/model_1/block9_sepconv1/separable_conv2d/ReadVariableOp", "shape": [3, 3, 728, 1], "dtype": "float32"}, {"name": "StatefulPartitionedCall/model_1/block9_sepconv2/separable_conv2d/ReadVariableOp", "shape": [3, 3, 728, 1], "dtype": "float32"}, {"name": "StatefulPartitionedCall/model_1/block9_sepconv3/separable_conv2d/ReadVariableOp", "shape": [3, 3, 728, 1], "dtype": "float32"}, {"name": "StatefulPartitionedCall/model_1/block8_sepconv1/separable_conv2d/ReadVariableOp", "shape": [3, 3, 728, 1], "dtype": "float32"}, {"name": "StatefulPartitionedCall/model_1/block8_sepconv2/separable_conv2d/ReadVariableOp", "shape": [3, 3, 728, 1], "dtype": "float32"}, {"name": "StatefulPartitionedCall/model_1/block8_sepconv3/separable_conv2d/ReadVariableOp", "shape": [3, 3, 728, 1], "dtype": "float32"}, {"name": "StatefulPartitionedCall/model_1/block7_sepconv1/separable_conv2d/ReadVariableOp", "shape": [3, 3, 728, 1], "dtype": "float32"}, {"name": "StatefulPartitionedCall/model_1/block7_sepconv2/separable_conv2d/ReadVariableOp", "shape": [3, 3, 728, 1], "dtype": "float32"}, {"name": "StatefulPartitionedCall/model_1/block7_sepconv3/separable_conv2d/ReadVariableOp", "shape": [3, 3, 728, 1], "dtype": "float32"}, {"name": "StatefulPartitionedCall/model_1/block6_sepconv1/separable_conv2d/ReadVariableOp", "shape": [3, 3, 728, 1], "dtype": "float32"}, {"name": "StatefulPartitionedCall/model_1/block6_sepconv2/separable_conv2d/ReadVariableOp", "shape": [3, 3, 728, 1], "dtype": "float32"}, {"name": "StatefulPartitionedCall/model_1/block6_sepconv3/separable_conv2d/ReadVariableOp", "shape": [3, 3, 728, 1], "dtype": "float32"}, {"name": "StatefulPartitionedCall/model_1/block5_sepconv1/separable_conv2d/ReadVariableOp", "shape": [3, 3, 728, 1], "dtype": "float32"}, {"name": "StatefulPartitionedCall/model_1/block5_sepconv2/separable_conv2d/ReadVariableOp", "shape": [3, 3, 728, 1], "dtype": "float32"}, {"name": "StatefulPartitionedCall/model_1/block5_sepconv3/separable_conv2d/ReadVariableOp", "shape": [3, 3, 728, 1], "dtype": "float32"}, {"name": "StatefulPartitionedCall/model_1/block4_sepconv1/separable_conv2d/ReadVariableOp", "shape": [3, 3, 256, 1], "dtype": "float32"}, {"name": "StatefulPartitionedCall/model_1/block4_sepconv2/separable_conv2d/ReadVariableOp", "shape": [3, 3, 728, 1], "dtype": "float32"}, {"name": "StatefulPartitionedCall/model_1/block3_sepconv1/separable_conv2d/ReadVariableOp", "shape": [3, 3, 128, 1], "dtype": "float32"}, {"name": "StatefulPartitionedCall/model_1/block3_sepconv2/separable_conv2d/ReadVariableOp", "shape": [3, 3, 256, 1], "dtype": "float32"}, {"name": "StatefulPartitionedCall/model_1/block2_sepconv1/separable_conv2d/ReadVariableOp", "shape": [3, 3, 64, 1], "dtype": "float32"}, {"name": "StatefulPartitionedCall/model_1/block2_sepconv2/separable_conv2d/ReadVariableOp", "shape": [3, 3, 128, 1], "dtype": "float32"}, {"name": "StatefulPartitionedCall/model_1/block14_sepconv1/separable_conv2d/ReadVariableOp", "shape": [3, 3, 1024, 1], "dtype": "float32"}, {"name": "StatefulPartitionedCall/model_1/block14_sepconv2/separable_conv2d/ReadVariableOp", "shape": [3, 3, 1536, 1], "dtype": "float32"}, {"name": "StatefulPartitionedCall/model_1/global_average_pooling2d_1/Mean/reduction_indices", "shape": [2], "dtype": "int32"}, {"name": "StatefulPartitionedCall/model_1/dense_3/MatMul/ReadVariableOp", "shape": [2048, 1024], "dtype": "float32"}, {"name": "StatefulPartitionedCall/model_1/dense_3/BiasAdd/ReadVariableOp", "shape": [1024], "dtype": "float32"}, {"name": "StatefulPartitionedCall/model_1/dense_4/MatMul/ReadVariableOp", "shape": [1024, 512], "dtype": "float32"}, {"name": "StatefulPartitionedCall/model_1/dense_4/BiasAdd/ReadVariableOp", "shape": [512], "dtype": "float32"}, {"name": "StatefulPartitionedCall/model_1/dense_5/MatMul/ReadVariableOp", "shape": [512, 256], "dtype": "float32"}, {"name": "StatefulPartitionedCall/model_1/dense_5/BiasAdd/ReadVariableOp", "shape": [256], "dtype": "float32"}, {"name": "StatefulPartitionedCall/model_1/output/MatMul/ReadVariableOp", "shape": [256, 133], "dtype": "float32"}, {"name": "StatefulPartitionedCall/model_1/output/BiasAdd/ReadVariableOp", "shape": [133], "dtype": "float32"}, {"name": "StatefulPartitionedCall/model_1/block1_conv1/Conv2D_weights", "shape": [3, 3, 3, 32], "dtype": "float32"}, {"name": "StatefulPartitionedCall/model_1/block1_conv1/Conv2D_bn_offset", "shape": [32], "dtype": "float32"}, {"name": "StatefulPartitionedCall/model_1/block1_conv2/Conv2D_weights", "shape": [3, 3, 32, 64], "dtype": "float32"}, {"name": "StatefulPartitionedCall/model_1/block1_conv2/Conv2D_bn_offset", "shape": [64], "dtype": "float32"}, {"name": "StatefulPartitionedCall/model_1/block11_sepconv3/separable_conv2d_weights", "shape": [1, 1, 728, 728], "dtype": "float32"}, {"name": "StatefulPartitionedCall/model_1/conv2d_4/Conv2D_weights", "shape": [1, 1, 64, 128], "dtype": "float32"}, {"name": "StatefulPartitionedCall/model_1/conv2d_4/Conv2D_bn_offset", "shape": [128], "dtype": "float32"}, {"name": "StatefulPartitionedCall/model_1/block2_sepconv1/separable_conv2d_weights", "shape": [1, 1, 64, 128], "dtype": "float32"}, {"name": "StatefulPartitionedCall/model_1/block11_sepconv3/separable_conv2d_bn_offset", "shape": [728], "dtype": "float32"}, {"name": "StatefulPartitionedCall/model_1/block2_sepconv1/separable_conv2d_bn_offset", "shape": [128], "dtype": "float32"}, {"name": "StatefulPartitionedCall/model_1/block2_sepconv2/separable_conv2d_weights", "shape": [1, 1, 128, 128], "dtype": "float32"}, {"name": "StatefulPartitionedCall/model_1/block2_sepconv2/separable_conv2d_bn_offset", "shape": [128], "dtype": "float32"}, {"name": "StatefulPartitionedCall/model_1/conv2d_5/Conv2D_weights", "shape": [1, 1, 128, 256], "dtype": "float32"}, {"name": "StatefulPartitionedCall/model_1/conv2d_5/Conv2D_bn_offset", "shape": [256], "dtype": "float32"}, {"name": "StatefulPartitionedCall/model_1/block3_sepconv1/separable_conv2d_weights", "shape": [1, 1, 128, 256], "dtype": "float32"}, {"name": "StatefulPartitionedCall/model_1/block3_sepconv1/separable_conv2d_bn_offset", "shape": [256], "dtype": "float32"}, {"name": "StatefulPartitionedCall/model_1/block12_sepconv1/separable_conv2d_weights", "shape": [1, 1, 728, 728], "dtype": "float32"}, {"name": "StatefulPartitionedCall/model_1/block3_sepconv2/separable_conv2d_weights", "shape": [1, 1, 256, 256], "dtype": "float32"}, {"name": "StatefulPartitionedCall/model_1/block3_sepconv2/separable_conv2d_bn_offset", "shape": [256], "dtype": "float32"}, {"name": "StatefulPartitionedCall/model_1/conv2d_6/Conv2D_weights", "shape": [1, 1, 256, 728], "dtype": "float32"}, {"name": "StatefulPartitionedCall/model_1/block12_sepconv1/separable_conv2d_bn_offset", "shape": [728], "dtype": "float32"}, {"name": "StatefulPartitionedCall/model_1/conv2d_6/Conv2D_bn_offset", "shape": [728], "dtype": "float32"}, {"name": "StatefulPartitionedCall/model_1/block4_sepconv1/separable_conv2d_weights", "shape": [1, 1, 256, 728], "dtype": "float32"}, {"name": "StatefulPartitionedCall/model_1/block14_sepconv2/separable_conv2d_weights", "shape": [1, 1, 1536, 2048], "dtype": "float32"}, {"name": "StatefulPartitionedCall/model_1/block4_sepconv1/separable_conv2d_bn_offset", "shape": [728], "dtype": "float32"}, {"name": "StatefulPartitionedCall/model_1/block4_sepconv2/separable_conv2d_weights", "shape": [1, 1, 728, 728], "dtype": "float32"}, {"name": "StatefulPartitionedCall/model_1/block4_sepconv2/separable_conv2d_bn_offset", "shape": [728], "dtype": "float32"}, {"name": "StatefulPartitionedCall/model_1/block5_sepconv1/separable_conv2d_weights", "shape": [1, 1, 728, 728], "dtype": "float32"}, {"name": "StatefulPartitionedCall/model_1/block12_sepconv2/separable_conv2d_weights", "shape": [1, 1, 728, 728], "dtype": "float32"}, {"name": "StatefulPartitionedCall/model_1/block5_sepconv1/separable_conv2d_bn_offset", "shape": [728], "dtype": "float32"}, {"name": "StatefulPartitionedCall/model_1/block5_sepconv2/separable_conv2d_weights", "shape": [1, 1, 728, 728], "dtype": "float32"}, {"name": "StatefulPartitionedCall/model_1/block12_sepconv2/separable_conv2d_bn_offset", "shape": [728], "dtype": "float32"}, {"name": "StatefulPartitionedCall/model_1/block5_sepconv2/separable_conv2d_bn_offset", "shape": [728], "dtype": "float32"}, {"name": "StatefulPartitionedCall/model_1/block14_sepconv2/separable_conv2d_bn_offset", "shape": [2048], "dtype": "float32"}, {"name": "StatefulPartitionedCall/model_1/block5_sepconv3/separable_conv2d_weights", "shape": [1, 1, 728, 728], "dtype": "float32"}, {"name": "StatefulPartitionedCall/model_1/block5_sepconv3/separable_conv2d_bn_offset", "shape": [728], "dtype": "float32"}, {"name": "StatefulPartitionedCall/model_1/block6_sepconv1/separable_conv2d_weights", "shape": [1, 1, 728, 728], "dtype": "float32"}, {"name": "StatefulPartitionedCall/model_1/block6_sepconv1/separable_conv2d_bn_offset", "shape": [728], "dtype": "float32"}, {"name": "StatefulPartitionedCall/model_1/block12_sepconv3/separable_conv2d_weights", "shape": [1, 1, 728, 728], "dtype": "float32"}, {"name": "StatefulPartitionedCall/model_1/block6_sepconv2/separable_conv2d_weights", "shape": [1, 1, 728, 728], "dtype": "float32"}, {"name": "StatefulPartitionedCall/model_1/block6_sepconv2/separable_conv2d_bn_offset", "shape": [728], "dtype": "float32"}, {"name": "StatefulPartitionedCall/model_1/block12_sepconv3/separable_conv2d_bn_offset", "shape": [728], "dtype": "float32"}, {"name": "StatefulPartitionedCall/model_1/block6_sepconv3/separable_conv2d_weights", "shape": [1, 1, 728, 728], "dtype": "float32"}, {"name": "StatefulPartitionedCall/model_1/block6_sepconv3/separable_conv2d_bn_offset", "shape": [728], "dtype": "float32"}, {"name": "StatefulPartitionedCall/model_1/block7_sepconv1/separable_conv2d_weights", "shape": [1, 1, 728, 728], "dtype": "float32"}, {"name": "StatefulPartitionedCall/model_1/block7_sepconv1/separable_conv2d_bn_offset", "shape": [728], "dtype": "float32"}, {"name": "StatefulPartitionedCall/model_1/block7_sepconv2/separable_conv2d_weights", "shape": [1, 1, 728, 728], "dtype": "float32"}, {"name": "StatefulPartitionedCall/model_1/block7_sepconv2/separable_conv2d_bn_offset", "shape": [728], "dtype": "float32"}, {"name": "StatefulPartitionedCall/model_1/conv2d_7/Conv2D_weights", "shape": [1, 1, 728, 1024], "dtype": "float32"}, {"name": "StatefulPartitionedCall/model_1/block7_sepconv3/separable_conv2d_weights", "shape": [1, 1, 728, 728], "dtype": "float32"}, {"name": "StatefulPartitionedCall/model_1/block7_sepconv3/separable_conv2d_bn_offset", "shape": [728], "dtype": "float32"}, {"name": "StatefulPartitionedCall/model_1/block8_sepconv1/separable_conv2d_weights", "shape": [1, 1, 728, 728], "dtype": "float32"}, {"name": "StatefulPartitionedCall/model_1/conv2d_7/Conv2D_bn_offset", "shape": [1024], "dtype": "float32"}, {"name": "StatefulPartitionedCall/model_1/block8_sepconv1/separable_conv2d_bn_offset", "shape": [728], "dtype": "float32"}, {"name": "StatefulPartitionedCall/model_1/block8_sepconv2/separable_conv2d_weights", "shape": [1, 1, 728, 728], "dtype": "float32"}, {"name": "StatefulPartitionedCall/model_1/block13_sepconv1/separable_conv2d_weights", "shape": [1, 1, 728, 728], "dtype": "float32"}, {"name": "StatefulPartitionedCall/model_1/block8_sepconv2/separable_conv2d_bn_offset", "shape": [728], "dtype": "float32"}, {"name": "StatefulPartitionedCall/model_1/block8_sepconv3/separable_conv2d_weights", "shape": [1, 1, 728, 728], "dtype": "float32"}, {"name": "StatefulPartitionedCall/model_1/block13_sepconv1/separable_conv2d_bn_offset", "shape": [728], "dtype": "float32"}, {"name": "StatefulPartitionedCall/model_1/block8_sepconv3/separable_conv2d_bn_offset", "shape": [728], "dtype": "float32"}, {"name": "StatefulPartitionedCall/model_1/block9_sepconv1/separable_conv2d_weights", "shape": [1, 1, 728, 728], "dtype": "float32"}, {"name": "StatefulPartitionedCall/model_1/block9_sepconv1/separable_conv2d_bn_offset", "shape": [728], "dtype": "float32"}, {"name": "StatefulPartitionedCall/model_1/block9_sepconv2/separable_conv2d_weights", "shape": [1, 1, 728, 728], "dtype": "float32"}, {"name": "StatefulPartitionedCall/model_1/block9_sepconv2/separable_conv2d_bn_offset", "shape": [728], "dtype": "float32"}, {"name": "StatefulPartitionedCall/model_1/block13_sepconv2/separable_conv2d_weights", "shape": [1, 1, 728, 1024], "dtype": "float32"}, {"name": "StatefulPartitionedCall/model_1/block9_sepconv3/separable_conv2d_weights", "shape": [1, 1, 728, 728], "dtype": "float32"}, {"name": "StatefulPartitionedCall/model_1/block9_sepconv3/separable_conv2d_bn_offset", "shape": [728], "dtype": "float32"}, {"name": "StatefulPartitionedCall/model_1/block10_sepconv1/separable_conv2d_weights", "shape": [1, 1, 728, 728], "dtype": "float32"}, {"name": "StatefulPartitionedCall/model_1/block13_sepconv2/separable_conv2d_bn_offset", "shape": [1024], "dtype": "float32"}, {"name": "StatefulPartitionedCall/model_1/block10_sepconv1/separable_conv2d_bn_offset", "shape": [728], "dtype": "float32"}, {"name": "StatefulPartitionedCall/model_1/block10_sepconv2/separable_conv2d_weights", "shape": [1, 1, 728, 728], "dtype": "float32"}, {"name": "StatefulPartitionedCall/model_1/block10_sepconv2/separable_conv2d_bn_offset", "shape": [728], "dtype": "float32"}, {"name": "StatefulPartitionedCall/model_1/block10_sepconv3/separable_conv2d_weights", "shape": [1, 1, 728, 728], "dtype": "float32"}, {"name": "StatefulPartitionedCall/model_1/block10_sepconv3/separable_conv2d_bn_offset", "shape": [728], "dtype": "float32"}, {"name": "StatefulPartitionedCall/model_1/block11_sepconv1/separable_conv2d_weights", "shape": [1, 1, 728, 728], "dtype": "float32"}, {"name": "StatefulPartitionedCall/model_1/block14_sepconv1/separable_conv2d_weights", "shape": [1, 1, 1024, 1536], "dtype": "float32"}, {"name": "StatefulPartitionedCall/model_1/block11_sepconv1/separable_conv2d_bn_offset", "shape": [728], "dtype": "float32"}, {"name": "StatefulPartitionedCall/model_1/block11_sepconv2/separable_conv2d_weights", "shape": [1, 1, 728, 728], "dtype": "float32"}, {"name": "StatefulPartitionedCall/model_1/block14_sepconv1/separable_conv2d_bn_offset", "shape": [1536], "dtype": "float32"}, {"name": "StatefulPartitionedCall/model_1/block11_sepconv2/separable_conv2d_bn_offset", "shape": [728], "dtype": "float32"}]}]}